node {
  name: "input"
  op: "Placeholder"
  attr {
    key: "dtype"
    value {
      type: DT_FLOAT
    }
  }
  attr {
    key: "shape"
    value {
      shape {
      }
    }
  }
}
node {
  name: "transformer/contract/MirrorPad/paddings"
  op: "Const"
  attr {
    key: "dtype"
    value {
      type: DT_INT32
    }
  }
  attr {
    key: "value"
    value {
      tensor {
        dtype: DT_INT32
        tensor_shape {
          dim {
            size: 4
          }
          dim {
            size: 2
          }
        }
        tensor_content: "…"
      }
    }
  }
}
node {
  name: "transformer/contract/MirrorPad"
  op: "MirrorPad"
  input: "input"
  input: "transformer/contract/MirrorPad/paddings"
  attr {
    key: "T"
    value {
      type: DT_FLOAT
    }
  }
  attr {
    key: "Tpaddings"
    value {
      type: DT_INT32
    }
  }
  attr {
    key: "mode"
    value {
      s: "REFLECT"
    }
  }
}
node {
  name: "transformer/contract/conv1/weights_quint8_const"
  op: "Const"
  attr {
    key: "dtype"
    value {
      type: DT_QUINT8
    }
  }
  attr {
    key: "value"
    value {
      tensor {
        dtype: DT_QUINT8
        tensor_shape {
          dim {
            size: 9
          }
          dim {
            size: 9
          }
          dim {
            size: 3
          }
          dim {
            size: 32
          }
        }
        tensor_content: "…"
      }
    }
  }
}
node {
  name: "transformer/contract/conv1/weights_min"
  op: "Const"
  attr {
    key: "dtype"
    value {
      type: DT_FLOAT
    }
  }
  attr {
    key: "value"
    value {
      tensor {
        dtype: DT_FLOAT
        tensor_shape {
        }
        float_val: -0.695031344891
      }
    }
  }
}
node {
  name: "transformer/contract/conv1/weights_max"
  op: "Const"
  attr {
    key: "dtype"
    value {
      type: DT_FLOAT
    }
  }
  attr {
    key: "value"
    value {
      tensor {
        dtype: DT_FLOAT
        tensor_shape {
        }
        float_val: 0.897573590279
      }
    }
  }
}
node {
  name: "transformer/contract/conv1/convolution_eightbit_reshape_dims"
  op: "Const"
  attr {
    key: "dtype"
    value {
      type: DT_INT32
    }
  }
  attr {
    key: "value"
    value {
      tensor {
        dtype: DT_INT32
        tensor_shape {
          dim {
            size: 1
          }
        }
        int_val: -1
      }
    }
  }
}
node {
  name: "transformer/contract/conv1/convolution_eightbit_reduction_dims"
  op: "Const"
  attr {
    key: "dtype"
    value {
      type: DT_INT32
    }
  }
  attr {
    key: "value"
    value {
      tensor {
        dtype: DT_INT32
        tensor_shape {
          dim {
            size: 1
          }
        }
        int_val: 0
      }
    }
  }
}
node {
  name: "transformer/contract/conv1/convolution_eightbit_reshape_transformer/contract/MirrorPad"
  op: "Reshape"
  input: "transformer/contract/MirrorPad"
  input: "transformer/contract/conv1/convolution_eightbit_reshape_dims"
  attr {
    key: "T"
    value {
      type: DT_FLOAT
    }
  }
}
node {
  name: "transformer/contract/conv1/convolution_eightbit_min_transformer/contract/MirrorPad"
  op: "Min"
  input: "transformer/contract/conv1/convolution_eightbit_reshape_transformer/contract/MirrorPad"
  input: "transformer/contract/conv1/convolution_eightbit_reduction_dims"
  attr {
    key: "T"
    value {
      type: DT_FLOAT
    }
  }
  attr {
    key: "keep_dims"
    value {
      b: false
    }
  }
}
node {
  name: "transformer/contract/conv1/convolution_eightbit_max_transformer/contract/MirrorPad"
  op: "Max"
  input: "transformer/contract/conv1/convolution_eightbit_reshape_transformer/contract/MirrorPad"
  input: "transformer/contract/conv1/convolution_eightbit_reduction_dims"
  attr {
    key: "T"
    value {
      type: DT_FLOAT
    }
  }
  attr {
    key: "keep_dims"
    value {
      b: false
    }
  }
}
node {
  name: "transformer/contract/conv1/convolution_eightbit_quantize_transformer/contract/MirrorPad"
  op: "QuantizeV2"
  input: "transformer/contract/MirrorPad"
  input: "transformer/contract/conv1/convolution_eightbit_min_transformer/contract/MirrorPad"
  input: "transformer/contract/conv1/convolution_eightbit_max_transformer/contract/MirrorPad"
  attr {
    key: "T"
    value {
      type: DT_QUINT8
    }
  }
  attr {
    key: "mode"
    value {
      s: "MIN_FIRST"
    }
  }
}
node {
  name: "transformer/contract/conv1/convolution_eightbit_quantized_conv"
  op: "QuantizedConv2D"
  input: "transformer/contract/conv1/convolution_eightbit_quantize_transformer/contract/MirrorPad"
  input: "transformer/contract/conv1/weights_quint8_const"
  input: "transformer/contract/conv1/convolution_eightbit_quantize_transformer/contract/MirrorPad:1"
  input: "transformer/contract/conv1/convolution_eightbit_quantize_transformer/contract/MirrorPad:2"
  input: "transformer/contract/conv1/weights_min"
  input: "transformer/contract/conv1/weights_max"
  attr {
    key: "Tfilter"
    value {
      type: DT_QUINT8
    }
  }
  attr {
    key: "Tinput"
    value {
      type: DT_QUINT8
    }
  }
  attr {
    key: "out_type"
    value {
      type: DT_QINT32
    }
  }
  attr {
    key: "padding"
    value {
      s: "VALID"
    }
  }
  attr {
    key: "strides"
    value {
      list {
        i: 1
        i: 1
        i: 1
        i: 1
      }
    }
  }
}
node {
  name: "transformer/contract/conv1/convolution_eightbit_requant_range"
  op: "RequantizationRange"
  input: "transformer/contract/conv1/convolution_eightbit_quantized_conv"
  input: "transformer/contract/conv1/convolution_eightbit_quantized_conv:1"
  input: "transformer/contract/conv1/convolution_eightbit_quantized_conv:2"
  attr {
    key: "Tinput"
    value {
      type: DT_QINT32
    }
  }
}
node {
  name: "transformer/contract/conv1/convolution_eightbit_requantize"
  op: "Requantize"
  input: "transformer/contract/conv1/convolution_eightbit_quantized_conv"
  input: "transformer/contract/conv1/convolution_eightbit_quantized_conv:1"
  input: "transformer/contract/conv1/convolution_eightbit_quantized_conv:2"
  input: "transformer/contract/conv1/convolution_eightbit_requant_range:0"
  input: "transformer/contract/conv1/convolution_eightbit_requant_range:1"
  attr {
    key: "Tinput"
    value {
      type: DT_QINT32
    }
  }
  attr {
    key: "out_type"
    value {
      type: DT_QUINT8
    }
  }
}
node {
  name: "transformer/contract/conv1/convolution"
  op: "Dequantize"
  input: "transformer/contract/conv1/convolution_eightbit_requantize"
  input: "transformer/contract/conv1/convolution_eightbit_requantize:1"
  input: "transformer/contract/conv1/convolution_eightbit_requantize:2"
  attr {
    key: "T"
    value {
      type: DT_QUINT8
    }
  }
  attr {
    key: "mode"
    value {
      s: "MIN_FIRST"
    }
  }
}
node {
  name: "transformer/contract/conv1/InstanceNorm/moments/sufficient_statistics/Square"
  op: "Square"
  input: "transformer/contract/conv1/convolution"
  attr {
    key: "T"
    value {
      type: DT_FLOAT
    }
  }
}
node {
  name: "transformer/contract/conv1/InstanceNorm/moments/sufficient_statistics/var_ss/reduction_indices"
  op: "Const"
  attr {
    key: "dtype"
    value {
      type: DT_INT32
    }
  }
  attr {
    key: "value"
    value {
      tensor {
        dtype: DT_INT32
        tensor_shape {
          dim {
            size: 2
          }
        }
        tensor_content: "\001\000\000\000\002\000\000\000"
      }
    }
  }
}
node {
  name: "transformer/contract/conv1/InstanceNorm/moments/sufficient_statistics/var_ss"
  op: "Sum"
  input: "transformer/contract/conv1/InstanceNorm/moments/sufficient_statistics/Square"
  input: "transformer/contract/conv1/InstanceNorm/moments/sufficient_statistics/var_ss/reduction_indices"
  attr {
    key: "T"
    value {
      type: DT_FLOAT
    }
  }
  attr {
    key: "Tidx"
    value {
      type: DT_INT32
    }
  }
  attr {
    key: "keep_dims"
    value {
      b: true
    }
  }
}
node {
  name: "transformer/contract/conv1/InstanceNorm/moments/sufficient_statistics/Shape"
  op: "Shape"
  input: "transformer/contract/conv1/convolution"
  attr {
    key: "T"
    value {
      type: DT_FLOAT
    }
  }
  attr {
    key: "out_type"
    value {
      type: DT_INT32
    }
  }
}
node {
  name: "transformer/contract/conv1/InstanceNorm/moments/sufficient_statistics/Cast"
  op: "Cast"
  input: "transformer/contract/conv1/InstanceNorm/moments/sufficient_statistics/Shape"
  attr {
    key: "DstT"
    value {
      type: DT_FLOAT
    }
  }
  attr {
    key: "SrcT"
    value {
      type: DT_INT32
    }
  }
}
node {
  name: "transformer/contract/conv1/InstanceNorm/moments/sufficient_statistics/Gather/indices"
  op: "Const"
  attr {
    key: "dtype"
    value {
      type: DT_INT32
    }
  }
  attr {
    key: "value"
    value {
      tensor {
        dtype: DT_INT32
        tensor_shape {
          dim {
            size: 2
          }
        }
        tensor_content: "\001\000\000\000\002\000\000\000"
      }
    }
  }
}
node {
  name: "transformer/contract/conv1/InstanceNorm/moments/sufficient_statistics/Gather"
  op: "Gather"
  input: "transformer/contract/conv1/InstanceNorm/moments/sufficient_statistics/Cast"
  input: "transformer/contract/conv1/InstanceNorm/moments/sufficient_statistics/Gather/indices"
  attr {
    key: "Tindices"
    value {
      type: DT_INT32
    }
  }
  attr {
    key: "Tparams"
    value {
      type: DT_FLOAT
    }
  }
  attr {
    key: "validate_indices"
    value {
      b: true
    }
  }
}
node {
  name: "transformer/contract/conv1/InstanceNorm/moments/sufficient_statistics/Const"
  op: "Const"
  attr {
    key: "dtype"
    value {
      type: DT_INT32
    }
  }
  attr {
    key: "value"
    value {
      tensor {
        dtype: DT_INT32
        tensor_shape {
          dim {
            size: 1
          }
        }
        int_val: 0
      }
    }
  }
}
node {
  name: "transformer/contract/conv1/InstanceNorm/moments/sufficient_statistics/count"
  op: "Prod"
  input: "transformer/contract/conv1/InstanceNorm/moments/sufficient_statistics/Gather"
  input: "transformer/contract/conv1/InstanceNorm/moments/sufficient_statistics/Const"
  attr {
    key: "T"
    value {
      type: DT_FLOAT
    }
  }
  attr {
    key: "Tidx"
    value {
      type: DT_INT32
    }
  }
  attr {
    key: "keep_dims"
    value {
      b: false
    }
  }
}
node {
  name: "transformer/contract/conv1/InstanceNorm/moments/sufficient_statistics/mean_ss/reduction_indices"
  op: "Const"
  attr {
    key: "dtype"
    value {
      type: DT_INT32
    }
  }
  attr {
    key: "value"
    value {
      tensor {
        dtype: DT_INT32
        tensor_shape {
          dim {
            size: 2
          }
        }
        tensor_content: "\001\000\000\000\002\000\000\000"
      }
    }
  }
}
node {
  name: "transformer/contract/conv1/InstanceNorm/moments/sufficient_statistics/mean_ss"
  op: "Sum"
  input: "transformer/contract/conv1/convolution"
  input: "transformer/contract/conv1/InstanceNorm/moments/sufficient_statistics/mean_ss/reduction_indices"
  attr {
    key: "T"
    value {
      type: DT_FLOAT
    }
  }
  attr {
    key: "Tidx"
    value {
      type: DT_INT32
    }
  }
  attr {
    key: "keep_dims"
    value {
      b: true
    }
  }
}
node {
  name: "transformer/contract/conv1/InstanceNorm/moments/normalize/divisor"
  op: "Reciprocal"
  input: "transformer/contract/conv1/InstanceNorm/moments/sufficient_statistics/count"
  input: "^transformer/contract/conv1/InstanceNorm/moments/sufficient_statistics/mean_ss"
  input: "^transformer/contract/conv1/InstanceNorm/moments/sufficient_statistics/var_ss"
  attr {
    key: "T"
    value {
      type: DT_FLOAT
    }
  }
}
node {
  name: "transformer/contract/conv1/InstanceNorm/moments/normalize/Mul"
  op: "Mul"
  input: "transformer/contract/conv1/InstanceNorm/moments/sufficient_statistics/var_ss"
  input: "transformer/contract/conv1/InstanceNorm/moments/normalize/divisor"
  attr {
    key: "T"
    value {
      type: DT_FLOAT
    }
  }
}
node {
  name: "transformer/contract/conv1/InstanceNorm/moments/normalize/mean"
  op: "Mul"
  input: "transformer/contract/conv1/InstanceNorm/moments/sufficient_statistics/mean_ss"
  input: "transformer/contract/conv1/InstanceNorm/moments/normalize/divisor"
  attr {
    key: "T"
    value {
      type: DT_FLOAT
    }
  }
}
node {
  name: "transformer/contract/conv1/InstanceNorm/moments/normalize/Square"
  op: "Square"
  input: "transformer/contract/conv1/InstanceNorm/moments/normalize/mean"
  attr {
    key: "T"
    value {
      type: DT_FLOAT
    }
  }
}
node {
  name: "transformer/contract/conv1/InstanceNorm/moments/normalize/variance"
  op: "Sub"
  input: "transformer/contract/conv1/InstanceNorm/moments/normalize/Mul"
  input: "transformer/contract/conv1/InstanceNorm/moments/normalize/Square"
  attr {
    key: "T"
    value {
      type: DT_FLOAT
    }
  }
}
node {
  name: "transformer/contract/conv1/InstanceNorm/batchnorm/add/y"
  op: "Const"
  attr {
    key: "dtype"
    value {
      type: DT_FLOAT
    }
  }
  attr {
    key: "value"
    value {
      tensor {
        dtype: DT_FLOAT
        tensor_shape {
        }
        float_val: 9.99999974738e-06
      }
    }
  }
}
node {
  name: "transformer/contract/conv1/InstanceNorm/batchnorm/add"
  op: "Add"
  input: "transformer/contract/conv1/InstanceNorm/moments/normalize/variance"
  input: "transformer/contract/conv1/InstanceNorm/batchnorm/add/y"
  attr {
    key: "T"
    value {
      type: DT_FLOAT
    }
  }
}
node {
  name: "transformer/contract/conv1/InstanceNorm/batchnorm/Rsqrt"
  op: "Rsqrt"
  input: "transformer/contract/conv1/InstanceNorm/batchnorm/add"
  attr {
    key: "T"
    value {
      type: DT_FLOAT
    }
  }
}
node {
  name: "style_num"
  op: "Placeholder"
  attr {
    key: "dtype"
    value {
      type: DT_FLOAT
    }
  }
  attr {
    key: "shape"
    value {
      shape {
        dim {
          size: 26
        }
      }
    }
  }
}
node {
  name: "transformer/contract/conv1/InstanceNorm/Reshape_1/shape"
  op: "Const"
  attr {
    key: "dtype"
    value {
      type: DT_INT32
    }
  }
  attr {
    key: "value"
    value {
      tensor {
        dtype: DT_INT32
        tensor_shape {
          dim {
            size: 2
          }
        }
        tensor_content: "\032\000\000\000\001\000\000\000"
      }
    }
  }
}
node {
  name: "transformer/contract/conv1/InstanceNorm/Reshape_1_eightbit_reshape_dims"
  op: "Const"
  attr {
    key: "dtype"
    value {
      type: DT_INT32
    }
  }
  attr {
    key: "value"
    value {
      tensor {
        dtype: DT_INT32
        tensor_shape {
          dim {
            size: 1
          }
        }
        int_val: -1
      }
    }
  }
}
node {
  name: "transformer/contract/conv1/InstanceNorm/Reshape_1_eightbit_reduction_dims"
  op: "Const"
  attr {
    key: "dtype"
    value {
      type: DT_INT32
    }
  }
  attr {
    key: "value"
    value {
      tensor {
        dtype: DT_INT32
        tensor_shape {
          dim {
            size: 1
          }
        }
        int_val: 0
      }
    }
  }
}
node {
  name: "transformer/contract/conv1/InstanceNorm/Reshape_1_eightbit_reshape_style_num"
  op: "Reshape"
  input: "style_num"
  input: "transformer/contract/conv1/InstanceNorm/Reshape_1_eightbit_reshape_dims"
  attr {
    key: "T"
    value {
      type: DT_FLOAT
    }
  }
}
node {
  name: "transformer/contract/conv1/InstanceNorm/Reshape_1_eightbit_min_style_num"
  op: "Min"
  input: "transformer/contract/conv1/InstanceNorm/Reshape_1_eightbit_reshape_style_num"
  input: "transformer/contract/conv1/InstanceNorm/Reshape_1_eightbit_reduction_dims"
  attr {
    key: "T"
    value {
      type: DT_FLOAT
    }
  }
  attr {
    key: "keep_dims"
    value {
      b: false
    }
  }
}
node {
  name: "transformer/contract/conv1/InstanceNorm/Reshape_1_eightbit_max_style_num"
  op: "Max"
  input: "transformer/contract/conv1/InstanceNorm/Reshape_1_eightbit_reshape_style_num"
  input: "transformer/contract/conv1/InstanceNorm/Reshape_1_eightbit_reduction_dims"
  attr {
    key: "T"
    value {
      type: DT_FLOAT
    }
  }
  attr {
    key: "keep_dims"
    value {
      b: false
    }
  }
}
node {
  name: "transformer/contract/conv1/InstanceNorm/Reshape_1_eightbit_quantize_style_num"
  op: "QuantizeV2"
  input: "style_num"
  input: "transformer/contract/conv1/InstanceNorm/Reshape_1_eightbit_min_style_num"
  input: "transformer/contract/conv1/InstanceNorm/Reshape_1_eightbit_max_style_num"
  attr {
    key: "T"
    value {
      type: DT_QUINT8
    }
  }
  attr {
    key: "mode"
    value {
      s: "MIN_FIRST"
    }
  }
}
node {
  name: "transformer/contract/conv1/InstanceNorm/Reshape_1_eightbit_quantized_reshape"
  op: "QuantizedReshape"
  input: "transformer/contract/conv1/InstanceNorm/Reshape_1_eightbit_quantize_style_num"
  input: "transformer/contract/conv1/InstanceNorm/Reshape_1/shape"
  input: "transformer/contract/conv1/InstanceNorm/Reshape_1_eightbit_quantize_style_num:1"
  input: "transformer/contract/conv1/InstanceNorm/Reshape_1_eightbit_quantize_style_num:2"
  attr {
    key: "T"
    value {
      type: DT_QUINT8
    }
  }
}
node {
  name: "transformer/contract/conv1/InstanceNorm/Reshape_1"
  op: "Dequantize"
  input: "transformer/contract/conv1/InstanceNorm/Reshape_1_eightbit_quantized_reshape"
  input: "transformer/contract/conv1/InstanceNorm/Reshape_1_eightbit_quantized_reshape:1"
  input: "transformer/contract/conv1/InstanceNorm/Reshape_1_eightbit_quantized_reshape:2"
  attr {
    key: "T"
    value {
      type: DT_QUINT8
    }
  }
  attr {
    key: "mode"
    value {
      s: "MIN_FIRST"
    }
  }
}
node {
  name: "transformer/contract/conv1/InstanceNorm/gamma"
  op: "Const"
  attr {
    key: "dtype"
    value {
      type: DT_FLOAT
    }
  }
  attr {
    key: "value"
    value {
      tensor {
        dtype: DT_FLOAT
        tensor_shape {
          dim {
            size: 26
          }
          dim {
            size: 32
          }
        }
        tensor_content: "…"
      }
    }
  }
}
node {
  name: "transformer/contract/conv1/InstanceNorm/mul_1"
  op: "Mul"
  input: "transformer/contract/conv1/InstanceNorm/Reshape_1"
  input: "transformer/contract/conv1/InstanceNorm/gamma"
  attr {
    key: "T"
    value {
      type: DT_FLOAT
    }
  }
}
node {
  name: "transformer/contract/conv1/InstanceNorm/Sum_1/reduction_indices"
  op: "Const"
  attr {
    key: "dtype"
    value {
      type: DT_INT32
    }
  }
  attr {
    key: "value"
    value {
      tensor {
        dtype: DT_INT32
        tensor_shape {
        }
        int_val: 0
      }
    }
  }
}
node {
  name: "transformer/contract/conv1/InstanceNorm/Sum_1"
  op: "Sum"
  input: "transformer/contract/conv1/InstanceNorm/mul_1"
  input: "transformer/contract/conv1/InstanceNorm/Sum_1/reduction_indices"
  attr {
    key: "T"
    value {
      type: DT_FLOAT
    }
  }
  attr {
    key: "Tidx"
    value {
      type: DT_INT32
    }
  }
  attr {
    key: "keep_dims"
    value {
      b: true
    }
  }
}
node {
  name: "transformer/contract/conv1/InstanceNorm/ExpandDims_2/dim"
  op: "Const"
  attr {
    key: "dtype"
    value {
      type: DT_INT32
    }
  }
  attr {
    key: "value"
    value {
      tensor {
        dtype: DT_INT32
        tensor_shape {
        }
        int_val: 1
      }
    }
  }
}
node {
  name: "transformer/contract/conv1/InstanceNorm/ExpandDims_2"
  op: "ExpandDims"
  input: "transformer/contract/conv1/InstanceNorm/Sum_1"
  input: "transformer/contract/conv1/InstanceNorm/ExpandDims_2/dim"
  attr {
    key: "T"
    value {
      type: DT_FLOAT
    }
  }
  attr {
    key: "Tdim"
    value {
      type: DT_INT32
    }
  }
}
node {
  name: "transformer/contract/conv1/InstanceNorm/ExpandDims_3/dim"
  op: "Const"
  attr {
    key: "dtype"
    value {
      type: DT_INT32
    }
  }
  attr {
    key: "value"
    value {
      tensor {
        dtype: DT_INT32
        tensor_shape {
        }
        int_val: 1
      }
    }
  }
}
node {
  name: "transformer/contract/conv1/InstanceNorm/ExpandDims_3"
  op: "ExpandDims"
  input: "transformer/contract/conv1/InstanceNorm/ExpandDims_2"
  input: "transformer/contract/conv1/InstanceNorm/ExpandDims_3/dim"
  attr {
    key: "T"
    value {
      type: DT_FLOAT
    }
  }
  attr {
    key: "Tdim"
    value {
      type: DT_INT32
    }
  }
}
node {
  name: "transformer/contract/conv1/InstanceNorm/batchnorm/mul"
  op: "Mul"
  input: "transformer/contract/conv1/InstanceNorm/batchnorm/Rsqrt"
  input: "transformer/contract/conv1/InstanceNorm/ExpandDims_3"
  attr {
    key: "T"
    value {
      type: DT_FLOAT
    }
  }
}
node {
  name: "transformer/contract/conv1/InstanceNorm/batchnorm/mul_1"
  op: "Mul"
  input: "transformer/contract/conv1/convolution"
  input: "transformer/contract/conv1/InstanceNorm/batchnorm/mul"
  attr {
    key: "T"
    value {
      type: DT_FLOAT
    }
  }
}
node {
  name: "transformer/contract/conv1/InstanceNorm/Reshape/shape"
  op: "Const"
  attr {
    key: "dtype"
    value {
      type: DT_INT32
    }
  }
  attr {
    key: "value"
    value {
      tensor {
        dtype: DT_INT32
        tensor_shape {
          dim {
            size: 2
          }
        }
        tensor_content: "\032\000\000\000\001\000\000\000"
      }
    }
  }
}
node {
  name: "transformer/contract/conv1/InstanceNorm/Reshape_eightbit_reshape_dims"
  op: "Const"
  attr {
    key: "dtype"
    value {
      type: DT_INT32
    }
  }
  attr {
    key: "value"
    value {
      tensor {
        dtype: DT_INT32
        tensor_shape {
          dim {
            size: 1
          }
        }
        int_val: -1
      }
    }
  }
}
node {
  name: "transformer/contract/conv1/InstanceNorm/Reshape_eightbit_reduction_dims"
  op: "Const"
  attr {
    key: "dtype"
    value {
      type: DT_INT32
    }
  }
  attr {
    key: "value"
    value {
      tensor {
        dtype: DT_INT32
        tensor_shape {
          dim {
            size: 1
          }
        }
        int_val: 0
      }
    }
  }
}
node {
  name: "transformer/contract/conv1/InstanceNorm/Reshape_eightbit_reshape_style_num"
  op: "Reshape"
  input: "style_num"
  input: "transformer/contract/conv1/InstanceNorm/Reshape_eightbit_reshape_dims"
  attr {
    key: "T"
    value {
      type: DT_FLOAT
    }
  }
}
node {
  name: "transformer/contract/conv1/InstanceNorm/Reshape_eightbit_min_style_num"
  op: "Min"
  input: "transformer/contract/conv1/InstanceNorm/Reshape_eightbit_reshape_style_num"
  input: "transformer/contract/conv1/InstanceNorm/Reshape_eightbit_reduction_dims"
  attr {
    key: "T"
    value {
      type: DT_FLOAT
    }
  }
  attr {
    key: "keep_dims"
    value {
      b: false
    }
  }
}
node {
  name: "transformer/contract/conv1/InstanceNorm/Reshape_eightbit_max_style_num"
  op: "Max"
  input: "transformer/contract/conv1/InstanceNorm/Reshape_eightbit_reshape_style_num"
  input: "transformer/contract/conv1/InstanceNorm/Reshape_eightbit_reduction_dims"
  attr {
    key: "T"
    value {
      type: DT_FLOAT
    }
  }
  attr {
    key: "keep_dims"
    value {
      b: false
    }
  }
}
node {
  name: "transformer/contract/conv1/InstanceNorm/Reshape_eightbit_quantize_style_num"
  op: "QuantizeV2"
  input: "style_num"
  input: "transformer/contract/conv1/InstanceNorm/Reshape_eightbit_min_style_num"
  input: "transformer/contract/conv1/InstanceNorm/Reshape_eightbit_max_style_num"
  attr {
    key: "T"
    value {
      type: DT_QUINT8
    }
  }
  attr {
    key: "mode"
    value {
      s: "MIN_FIRST"
    }
  }
}
node {
  name: "transformer/contract/conv1/InstanceNorm/Reshape_eightbit_quantized_reshape"
  op: "QuantizedReshape"
  input: "transformer/contract/conv1/InstanceNorm/Reshape_eightbit_quantize_style_num"
  input: "transformer/contract/conv1/InstanceNorm/Reshape/shape"
  input: "transformer/contract/conv1/InstanceNorm/Reshape_eightbit_quantize_style_num:1"
  input: "transformer/contract/conv1/InstanceNorm/Reshape_eightbit_quantize_style_num:2"
  attr {
    key: "T"
    value {
      type: DT_QUINT8
    }
  }
}
node {
  name: "transformer/contract/conv1/InstanceNorm/Reshape"
  op: "Dequantize"
  input: "transformer/contract/conv1/InstanceNorm/Reshape_eightbit_quantized_reshape"
  input: "transformer/contract/conv1/InstanceNorm/Reshape_eightbit_quantized_reshape:1"
  input: "transformer/contract/conv1/InstanceNorm/Reshape_eightbit_quantized_reshape:2"
  attr {
    key: "T"
    value {
      type: DT_QUINT8
    }
  }
  attr {
    key: "mode"
    value {
      s: "MIN_FIRST"
    }
  }
}
node {
  name: "transformer/contract/conv1/InstanceNorm/beta"
  op: "Const"
  attr {
    key: "dtype"
    value {
      type: DT_FLOAT
    }
  }
  attr {
    key: "value"
    value {
      tensor {
        dtype: DT_FLOAT
        tensor_shape {
          dim {
            size: 26
          }
          dim {
            size: 32
          }
        }
        tensor_content: "…"
      }
    }
  }
}
node {
  name: "transformer/contract/conv1/InstanceNorm/mul"
  op: "Mul"
  input: "transformer/contract/conv1/InstanceNorm/Reshape"
  input: "transformer/contract/conv1/InstanceNorm/beta"
  attr {
    key: "T"
    value {
      type: DT_FLOAT
    }
  }
}
node {
  name: "transformer/contract/conv1/InstanceNorm/Sum/reduction_indices"
  op: "Const"
  attr {
    key: "dtype"
    value {
      type: DT_INT32
    }
  }
  attr {
    key: "value"
    value {
      tensor {
        dtype: DT_INT32
        tensor_shape {
        }
        int_val: 0
      }
    }
  }
}
node {
  name: "transformer/contract/conv1/InstanceNorm/Sum"
  op: "Sum"
  input: "transformer/contract/conv1/InstanceNorm/mul"
  input: "transformer/contract/conv1/InstanceNorm/Sum/reduction_indices"
  attr {
    key: "T"
    value {
      type: DT_FLOAT
    }
  }
  attr {
    key: "Tidx"
    value {
      type: DT_INT32
    }
  }
  attr {
    key: "keep_dims"
    value {
      b: true
    }
  }
}
node {
  name: "transformer/contract/conv1/InstanceNorm/ExpandDims/dim"
  op: "Const"
  attr {
    key: "dtype"
    value {
      type: DT_INT32
    }
  }
  attr {
    key: "value"
    value {
      tensor {
        dtype: DT_INT32
        tensor_shape {
        }
        int_val: 1
      }
    }
  }
}
node {
  name: "transformer/contract/conv1/InstanceNorm/ExpandDims"
  op: "ExpandDims"
  input: "transformer/contract/conv1/InstanceNorm/Sum"
  input: "transformer/contract/conv1/InstanceNorm/ExpandDims/dim"
  attr {
    key: "T"
    value {
      type: DT_FLOAT
    }
  }
  attr {
    key: "Tdim"
    value {
      type: DT_INT32
    }
  }
}
node {
  name: "transformer/contract/conv1/InstanceNorm/ExpandDims_1/dim"
  op: "Const"
  attr {
    key: "dtype"
    value {
      type: DT_INT32
    }
  }
  attr {
    key: "value"
    value {
      tensor {
        dtype: DT_INT32
        tensor_shape {
        }
        int_val: 1
      }
    }
  }
}
node {
  name: "transformer/contract/conv1/InstanceNorm/ExpandDims_1"
  op: "ExpandDims"
  input: "transformer/contract/conv1/InstanceNorm/ExpandDims"
  input: "transformer/contract/conv1/InstanceNorm/ExpandDims_1/dim"
  attr {
    key: "T"
    value {
      type: DT_FLOAT
    }
  }
  attr {
    key: "Tdim"
    value {
      type: DT_INT32
    }
  }
}
node {
  name: "transformer/contract/conv1/InstanceNorm/batchnorm/mul_2"
  op: "Mul"
  input: "transformer/contract/conv1/InstanceNorm/moments/normalize/mean"
  input: "transformer/contract/conv1/InstanceNorm/batchnorm/mul"
  attr {
    key: "T"
    value {
      type: DT_FLOAT
    }
  }
}
node {
  name: "transformer/contract/conv1/InstanceNorm/batchnorm/sub"
  op: "Sub"
  input: "transformer/contract/conv1/InstanceNorm/ExpandDims_1"
  input: "transformer/contract/conv1/InstanceNorm/batchnorm/mul_2"
  attr {
    key: "T"
    value {
      type: DT_FLOAT
    }
  }
}
node {
  name: "transformer/contract/conv1/InstanceNorm/batchnorm/add_1"
  op: "Add"
  input: "transformer/contract/conv1/InstanceNorm/batchnorm/mul_1"
  input: "transformer/contract/conv1/InstanceNorm/batchnorm/sub"
  attr {
    key: "T"
    value {
      type: DT_FLOAT
    }
  }
}
node {
  name: "transformer/contract/conv1/Relu_eightbit_reshape_dims"
  op: "Const"
  attr {
    key: "dtype"
    value {
      type: DT_INT32
    }
  }
  attr {
    key: "value"
    value {
      tensor {
        dtype: DT_INT32
        tensor_shape {
          dim {
            size: 1
          }
        }
        int_val: -1
      }
    }
  }
}
node {
  name: "transformer/contract/conv1/Relu_eightbit_reduction_dims"
  op: "Const"
  attr {
    key: "dtype"
    value {
      type: DT_INT32
    }
  }
  attr {
    key: "value"
    value {
      tensor {
        dtype: DT_INT32
        tensor_shape {
          dim {
            size: 1
          }
        }
        int_val: 0
      }
    }
  }
}
node {
  name: "transformer/contract/conv1/Relu_eightbit_reshape_transformer/contract/conv1/InstanceNorm/batchnorm/add_1"
  op: "Reshape"
  input: "transformer/contract/conv1/InstanceNorm/batchnorm/add_1"
  input: "transformer/contract/conv1/Relu_eightbit_reshape_dims"
  attr {
    key: "T"
    value {
      type: DT_FLOAT
    }
  }
}
node {
  name: "transformer/contract/conv1/Relu_eightbit_min_transformer/contract/conv1/InstanceNorm/batchnorm/add_1"
  op: "Min"
  input: "transformer/contract/conv1/Relu_eightbit_reshape_transformer/contract/conv1/InstanceNorm/batchnorm/add_1"
  input: "transformer/contract/conv1/Relu_eightbit_reduction_dims"
  attr {
    key: "T"
    value {
      type: DT_FLOAT
    }
  }
  attr {
    key: "keep_dims"
    value {
      b: false
    }
  }
}
node {
  name: "transformer/contract/conv1/Relu_eightbit_max_transformer/contract/conv1/InstanceNorm/batchnorm/add_1"
  op: "Max"
  input: "transformer/contract/conv1/Relu_eightbit_reshape_transformer/contract/conv1/InstanceNorm/batchnorm/add_1"
  input: "transformer/contract/conv1/Relu_eightbit_reduction_dims"
  attr {
    key: "T"
    value {
      type: DT_FLOAT
    }
  }
  attr {
    key: "keep_dims"
    value {
      b: false
    }
  }
}
node {
  name: "transformer/contract/conv1/Relu_eightbit_quantize_transformer/contract/conv1/InstanceNorm/batchnorm/add_1"
  op: "QuantizeV2"
  input: "transformer/contract/conv1/InstanceNorm/batchnorm/add_1"
  input: "transformer/contract/conv1/Relu_eightbit_min_transformer/contract/conv1/InstanceNorm/batchnorm/add_1"
  input: "transformer/contract/conv1/Relu_eightbit_max_transformer/contract/conv1/InstanceNorm/batchnorm/add_1"
  attr {
    key: "T"
    value {
      type: DT_QUINT8
    }
  }
  attr {
    key: "mode"
    value {
      s: "MIN_FIRST"
    }
  }
}
node {
  name: "transformer/contract/conv1/Relu_eightbit_quantized"
  op: "QuantizedRelu"
  input: "transformer/contract/conv1/Relu_eightbit_quantize_transformer/contract/conv1/InstanceNorm/batchnorm/add_1"
  input: "transformer/contract/conv1/Relu_eightbit_quantize_transformer/contract/conv1/InstanceNorm/batchnorm/add_1:1"
  input: "transformer/contract/conv1/Relu_eightbit_quantize_transformer/contract/conv1/InstanceNorm/batchnorm/add_1:2"
  attr {
    key: "Tinput"
    value {
      type: DT_QUINT8
    }
  }
}
node {
  name: "transformer/contract/conv1/Relu"
  op: "Dequantize"
  input: "transformer/contract/conv1/Relu_eightbit_quantized"
  input: "transformer/contract/conv1/Relu_eightbit_quantized:1"
  input: "transformer/contract/conv1/Relu_eightbit_quantized:2"
  attr {
    key: "T"
    value {
      type: DT_QUINT8
    }
  }
  attr {
    key: "mode"
    value {
      s: "MIN_FIRST"
    }
  }
}
node {
  name: "transformer/contract/MirrorPad_1/paddings"
  op: "Const"
  attr {
    key: "dtype"
    value {
      type: DT_INT32
    }
  }
  attr {
    key: "value"
    value {
      tensor {
        dtype: DT_INT32
        tensor_shape {
          dim {
            size: 4
          }
          dim {
            size: 2
          }
        }
        tensor_content: "…"
      }
    }
  }
}
node {
  name: "transformer/contract/MirrorPad_1"
  op: "MirrorPad"
  input: "transformer/contract/conv1/Relu"
  input: "transformer/contract/MirrorPad_1/paddings"
  attr {
    key: "T"
    value {
      type: DT_FLOAT
    }
  }
  attr {
    key: "Tpaddings"
    value {
      type: DT_INT32
    }
  }
  attr {
    key: "mode"
    value {
      s: "REFLECT"
    }
  }
}
node {
  name: "transformer/contract/conv2/weights_quint8_const"
  op: "Const"
  attr {
    key: "dtype"
    value {
      type: DT_QUINT8
    }
  }
  attr {
    key: "value"
    value {
      tensor {
        dtype: DT_QUINT8
        tensor_shape {
          dim {
            size: 3
          }
          dim {
            size: 3
          }
          dim {
            size: 32
          }
          dim {
            size: 32
          }
        }
        tensor_content: "…"
      }
    }
  }
}
node {
  name: "transformer/contract/conv2/weights_min"
  op: "Const"
  attr {
    key: "dtype"
    value {
      type: DT_FLOAT
    }
  }
  attr {
    key: "value"
    value {
      tensor {
        dtype: DT_FLOAT
        tensor_shape {
        }
        float_val: -1.75781190395
      }
    }
  }
}
node {
  name: "transformer/contract/conv2/weights_max"
  op: "Const"
  attr {
    key: "dtype"
    value {
      type: DT_FLOAT
    }
  }
  attr {
    key: "value"
    value {
      tensor {
        dtype: DT_FLOAT
        tensor_shape {
        }
        float_val: 0.985171318054
      }
    }
  }
}
node {
  name: "transformer/contract/conv2/convolution_eightbit_reshape_dims"
  op: "Const"
  attr {
    key: "dtype"
    value {
      type: DT_INT32
    }
  }
  attr {
    key: "value"
    value {
      tensor {
        dtype: DT_INT32
        tensor_shape {
          dim {
            size: 1
          }
        }
        int_val: -1
      }
    }
  }
}
node {
  name: "transformer/contract/conv2/convolution_eightbit_reduction_dims"
  op: "Const"
  attr {
    key: "dtype"
    value {
      type: DT_INT32
    }
  }
  attr {
    key: "value"
    value {
      tensor {
        dtype: DT_INT32
        tensor_shape {
          dim {
            size: 1
          }
        }
        int_val: 0
      }
    }
  }
}
node {
  name: "transformer/contract/conv2/convolution_eightbit_reshape_transformer/contract/MirrorPad_1"
  op: "Reshape"
  input: "transformer/contract/MirrorPad_1"
  input: "transformer/contract/conv2/convolution_eightbit_reshape_dims"
  attr {
    key: "T"
    value {
      type: DT_FLOAT
    }
  }
}
node {
  name: "transformer/contract/conv2/convolution_eightbit_min_transformer/contract/MirrorPad_1"
  op: "Min"
  input: "transformer/contract/conv2/convolution_eightbit_reshape_transformer/contract/MirrorPad_1"
  input: "transformer/contract/conv2/convolution_eightbit_reduction_dims"
  attr {
    key: "T"
    value {
      type: DT_FLOAT
    }
  }
  attr {
    key: "keep_dims"
    value {
      b: false
    }
  }
}
node {
  name: "transformer/contract/conv2/convolution_eightbit_max_transformer/contract/MirrorPad_1"
  op: "Max"
  input: "transformer/contract/conv2/convolution_eightbit_reshape_transformer/contract/MirrorPad_1"
  input: "transformer/contract/conv2/convolution_eightbit_reduction_dims"
  attr {
    key: "T"
    value {
      type: DT_FLOAT
    }
  }
  attr {
    key: "keep_dims"
    value {
      b: false
    }
  }
}
node {
  name: "transformer/contract/conv2/convolution_eightbit_quantize_transformer/contract/MirrorPad_1"
  op: "QuantizeV2"
  input: "transformer/contract/MirrorPad_1"
  input: "transformer/contract/conv2/convolution_eightbit_min_transformer/contract/MirrorPad_1"
  input: "transformer/contract/conv2/convolution_eightbit_max_transformer/contract/MirrorPad_1"
  attr {
    key: "T"
    value {
      type: DT_QUINT8
    }
  }
  attr {
    key: "mode"
    value {
      s: "MIN_FIRST"
    }
  }
}
node {
  name: "transformer/contract/conv2/convolution_eightbit_quantized_conv"
  op: "QuantizedConv2D"
  input: "transformer/contract/conv2/convolution_eightbit_quantize_transformer/contract/MirrorPad_1"
  input: "transformer/contract/conv2/weights_quint8_const"
  input: "transformer/contract/conv2/convolution_eightbit_quantize_transformer/contract/MirrorPad_1:1"
  input: "transformer/contract/conv2/convolution_eightbit_quantize_transformer/contract/MirrorPad_1:2"
  input: "transformer/contract/conv2/weights_min"
  input: "transformer/contract/conv2/weights_max"
  attr {
    key: "Tfilter"
    value {
      type: DT_QUINT8
    }
  }
  attr {
    key: "Tinput"
    value {
      type: DT_QUINT8
    }
  }
  attr {
    key: "out_type"
    value {
      type: DT_QINT32
    }
  }
  attr {
    key: "padding"
    value {
      s: "VALID"
    }
  }
  attr {
    key: "strides"
    value {
      list {
        i: 1
        i: 2
        i: 2
        i: 1
      }
    }
  }
}
node {
  name: "transformer/contract/conv2/convolution_eightbit_requant_range"
  op: "RequantizationRange"
  input: "transformer/contract/conv2/convolution_eightbit_quantized_conv"
  input: "transformer/contract/conv2/convolution_eightbit_quantized_conv:1"
  input: "transformer/contract/conv2/convolution_eightbit_quantized_conv:2"
  attr {
    key: "Tinput"
    value {
      type: DT_QINT32
    }
  }
}
node {
  name: "transformer/contract/conv2/convolution_eightbit_requantize"
  op: "Requantize"
  input: "transformer/contract/conv2/convolution_eightbit_quantized_conv"
  input: "transformer/contract/conv2/convolution_eightbit_quantized_conv:1"
  input: "transformer/contract/conv2/convolution_eightbit_quantized_conv:2"
  input: "transformer/contract/conv2/convolution_eightbit_requant_range:0"
  input: "transformer/contract/conv2/convolution_eightbit_requant_range:1"
  attr {
    key: "Tinput"
    value {
      type: DT_QINT32
    }
  }
  attr {
    key: "out_type"
    value {
      type: DT_QUINT8
    }
  }
}
node {
  name: "transformer/contract/conv2/convolution"
  op: "Dequantize"
  input: "transformer/contract/conv2/convolution_eightbit_requantize"
  input: "transformer/contract/conv2/convolution_eightbit_requantize:1"
  input: "transformer/contract/conv2/convolution_eightbit_requantize:2"
  attr {
    key: "T"
    value {
      type: DT_QUINT8
    }
  }
  attr {
    key: "mode"
    value {
      s: "MIN_FIRST"
    }
  }
}
node {
  name: "transformer/contract/conv2/InstanceNorm/moments/sufficient_statistics/Square"
  op: "Square"
  input: "transformer/contract/conv2/convolution"
  attr {
    key: "T"
    value {
      type: DT_FLOAT
    }
  }
}
node {
  name: "transformer/contract/conv2/InstanceNorm/moments/sufficient_statistics/var_ss/reduction_indices"
  op: "Const"
  attr {
    key: "dtype"
    value {
      type: DT_INT32
    }
  }
  attr {
    key: "value"
    value {
      tensor {
        dtype: DT_INT32
        tensor_shape {
          dim {
            size: 2
          }
        }
        tensor_content: "\001\000\000\000\002\000\000\000"
      }
    }
  }
}
node {
  name: "transformer/contract/conv2/InstanceNorm/moments/sufficient_statistics/var_ss"
  op: "Sum"
  input: "transformer/contract/conv2/InstanceNorm/moments/sufficient_statistics/Square"
  input: "transformer/contract/conv2/InstanceNorm/moments/sufficient_statistics/var_ss/reduction_indices"
  attr {
    key: "T"
    value {
      type: DT_FLOAT
    }
  }
  attr {
    key: "Tidx"
    value {
      type: DT_INT32
    }
  }
  attr {
    key: "keep_dims"
    value {
      b: true
    }
  }
}
node {
  name: "transformer/contract/conv2/InstanceNorm/moments/sufficient_statistics/Shape"
  op: "Shape"
  input: "transformer/contract/conv2/convolution"
  attr {
    key: "T"
    value {
      type: DT_FLOAT
    }
  }
  attr {
    key: "out_type"
    value {
      type: DT_INT32
    }
  }
}
node {
  name: "transformer/contract/conv2/InstanceNorm/moments/sufficient_statistics/Cast"
  op: "Cast"
  input: "transformer/contract/conv2/InstanceNorm/moments/sufficient_statistics/Shape"
  attr {
    key: "DstT"
    value {
      type: DT_FLOAT
    }
  }
  attr {
    key: "SrcT"
    value {
      type: DT_INT32
    }
  }
}
node {
  name: "transformer/contract/conv2/InstanceNorm/moments/sufficient_statistics/Gather/indices"
  op: "Const"
  attr {
    key: "dtype"
    value {
      type: DT_INT32
    }
  }
  attr {
    key: "value"
    value {
      tensor {
        dtype: DT_INT32
        tensor_shape {
          dim {
            size: 2
          }
        }
        tensor_content: "\001\000\000\000\002\000\000\000"
      }
    }
  }
}
node {
  name: "transformer/contract/conv2/InstanceNorm/moments/sufficient_statistics/Gather"
  op: "Gather"
  input: "transformer/contract/conv2/InstanceNorm/moments/sufficient_statistics/Cast"
  input: "transformer/contract/conv2/InstanceNorm/moments/sufficient_statistics/Gather/indices"
  attr {
    key: "Tindices"
    value {
      type: DT_INT32
    }
  }
  attr {
    key: "Tparams"
    value {
      type: DT_FLOAT
    }
  }
  attr {
    key: "validate_indices"
    value {
      b: true
    }
  }
}
node {
  name: "transformer/contract/conv2/InstanceNorm/moments/sufficient_statistics/Const"
  op: "Const"
  attr {
    key: "dtype"
    value {
      type: DT_INT32
    }
  }
  attr {
    key: "value"
    value {
      tensor {
        dtype: DT_INT32
        tensor_shape {
          dim {
            size: 1
          }
        }
        int_val: 0
      }
    }
  }
}
node {
  name: "transformer/contract/conv2/InstanceNorm/moments/sufficient_statistics/count"
  op: "Prod"
  input: "transformer/contract/conv2/InstanceNorm/moments/sufficient_statistics/Gather"
  input: "transformer/contract/conv2/InstanceNorm/moments/sufficient_statistics/Const"
  attr {
    key: "T"
    value {
      type: DT_FLOAT
    }
  }
  attr {
    key: "Tidx"
    value {
      type: DT_INT32
    }
  }
  attr {
    key: "keep_dims"
    value {
      b: false
    }
  }
}
node {
  name: "transformer/contract/conv2/InstanceNorm/moments/sufficient_statistics/mean_ss/reduction_indices"
  op: "Const"
  attr {
    key: "dtype"
    value {
      type: DT_INT32
    }
  }
  attr {
    key: "value"
    value {
      tensor {
        dtype: DT_INT32
        tensor_shape {
          dim {
            size: 2
          }
        }
        tensor_content: "\001\000\000\000\002\000\000\000"
      }
    }
  }
}
node {
  name: "transformer/contract/conv2/InstanceNorm/moments/sufficient_statistics/mean_ss"
  op: "Sum"
  input: "transformer/contract/conv2/convolution"
  input: "transformer/contract/conv2/InstanceNorm/moments/sufficient_statistics/mean_ss/reduction_indices"
  attr {
    key: "T"
    value {
      type: DT_FLOAT
    }
  }
  attr {
    key: "Tidx"
    value {
      type: DT_INT32
    }
  }
  attr {
    key: "keep_dims"
    value {
      b: true
    }
  }
}
node {
  name: "transformer/contract/conv2/InstanceNorm/moments/normalize/divisor"
  op: "Reciprocal"
  input: "transformer/contract/conv2/InstanceNorm/moments/sufficient_statistics/count"
  input: "^transformer/contract/conv2/InstanceNorm/moments/sufficient_statistics/mean_ss"
  input: "^transformer/contract/conv2/InstanceNorm/moments/sufficient_statistics/var_ss"
  attr {
    key: "T"
    value {
      type: DT_FLOAT
    }
  }
}
node {
  name: "transformer/contract/conv2/InstanceNorm/moments/normalize/Mul"
  op: "Mul"
  input: "transformer/contract/conv2/InstanceNorm/moments/sufficient_statistics/var_ss"
  input: "transformer/contract/conv2/InstanceNorm/moments/normalize/divisor"
  attr {
    key: "T"
    value {
      type: DT_FLOAT
    }
  }
}
node {
  name: "transformer/contract/conv2/InstanceNorm/moments/normalize/mean"
  op: "Mul"
  input: "transformer/contract/conv2/InstanceNorm/moments/sufficient_statistics/mean_ss"
  input: "transformer/contract/conv2/InstanceNorm/moments/normalize/divisor"
  attr {
    key: "T"
    value {
      type: DT_FLOAT
    }
  }
}
node {
  name: "transformer/contract/conv2/InstanceNorm/moments/normalize/Square"
  op: "Square"
  input: "transformer/contract/conv2/InstanceNorm/moments/normalize/mean"
  attr {
    key: "T"
    value {
      type: DT_FLOAT
    }
  }
}
node {
  name: "transformer/contract/conv2/InstanceNorm/moments/normalize/variance"
  op: "Sub"
  input: "transformer/contract/conv2/InstanceNorm/moments/normalize/Mul"
  input: "transformer/contract/conv2/InstanceNorm/moments/normalize/Square"
  attr {
    key: "T"
    value {
      type: DT_FLOAT
    }
  }
}
node {
  name: "transformer/contract/conv2/InstanceNorm/batchnorm/add/y"
  op: "Const"
  attr {
    key: "dtype"
    value {
      type: DT_FLOAT
    }
  }
  attr {
    key: "value"
    value {
      tensor {
        dtype: DT_FLOAT
        tensor_shape {
        }
        float_val: 9.99999974738e-06
      }
    }
  }
}
node {
  name: "transformer/contract/conv2/InstanceNorm/batchnorm/add"
  op: "Add"
  input: "transformer/contract/conv2/InstanceNorm/moments/normalize/variance"
  input: "transformer/contract/conv2/InstanceNorm/batchnorm/add/y"
  attr {
    key: "T"
    value {
      type: DT_FLOAT
    }
  }
}
node {
  name: "transformer/contract/conv2/InstanceNorm/batchnorm/Rsqrt"
  op: "Rsqrt"
  input: "transformer/contract/conv2/InstanceNorm/batchnorm/add"
  attr {
    key: "T"
    value {
      type: DT_FLOAT
    }
  }
}
node {
  name: "transformer/contract/conv2/InstanceNorm/Reshape_1/shape"
  op: "Const"
  attr {
    key: "dtype"
    value {
      type: DT_INT32
    }
  }
  attr {
    key: "value"
    value {
      tensor {
        dtype: DT_INT32
        tensor_shape {
          dim {
            size: 2
          }
        }
        tensor_content: "\032\000\000\000\001\000\000\000"
      }
    }
  }
}
node {
  name: "transformer/contract/conv2/InstanceNorm/Reshape_1_eightbit_reshape_dims"
  op: "Const"
  attr {
    key: "dtype"
    value {
      type: DT_INT32
    }
  }
  attr {
    key: "value"
    value {
      tensor {
        dtype: DT_INT32
        tensor_shape {
          dim {
            size: 1
          }
        }
        int_val: -1
      }
    }
  }
}
node {
  name: "transformer/contract/conv2/InstanceNorm/Reshape_1_eightbit_reduction_dims"
  op: "Const"
  attr {
    key: "dtype"
    value {
      type: DT_INT32
    }
  }
  attr {
    key: "value"
    value {
      tensor {
        dtype: DT_INT32
        tensor_shape {
          dim {
            size: 1
          }
        }
        int_val: 0
      }
    }
  }
}
node {
  name: "transformer/contract/conv2/InstanceNorm/Reshape_1_eightbit_reshape_style_num"
  op: "Reshape"
  input: "style_num"
  input: "transformer/contract/conv2/InstanceNorm/Reshape_1_eightbit_reshape_dims"
  attr {
    key: "T"
    value {
      type: DT_FLOAT
    }
  }
}
node {
  name: "transformer/contract/conv2/InstanceNorm/Reshape_1_eightbit_min_style_num"
  op: "Min"
  input: "transformer/contract/conv2/InstanceNorm/Reshape_1_eightbit_reshape_style_num"
  input: "transformer/contract/conv2/InstanceNorm/Reshape_1_eightbit_reduction_dims"
  attr {
    key: "T"
    value {
      type: DT_FLOAT
    }
  }
  attr {
    key: "keep_dims"
    value {
      b: false
    }
  }
}
node {
  name: "transformer/contract/conv2/InstanceNorm/Reshape_1_eightbit_max_style_num"
  op: "Max"
  input: "transformer/contract/conv2/InstanceNorm/Reshape_1_eightbit_reshape_style_num"
  input: "transformer/contract/conv2/InstanceNorm/Reshape_1_eightbit_reduction_dims"
  attr {
    key: "T"
    value {
      type: DT_FLOAT
    }
  }
  attr {
    key: "keep_dims"
    value {
      b: false
    }
  }
}
node {
  name: "transformer/contract/conv2/InstanceNorm/Reshape_1_eightbit_quantize_style_num"
  op: "QuantizeV2"
  input: "style_num"
  input: "transformer/contract/conv2/InstanceNorm/Reshape_1_eightbit_min_style_num"
  input: "transformer/contract/conv2/InstanceNorm/Reshape_1_eightbit_max_style_num"
  attr {
    key: "T"
    value {
      type: DT_QUINT8
    }
  }
  attr {
    key: "mode"
    value {
      s: "MIN_FIRST"
    }
  }
}
node {
  name: "transformer/contract/conv2/InstanceNorm/Reshape_1_eightbit_quantized_reshape"
  op: "QuantizedReshape"
  input: "transformer/contract/conv2/InstanceNorm/Reshape_1_eightbit_quantize_style_num"
  input: "transformer/contract/conv2/InstanceNorm/Reshape_1/shape"
  input: "transformer/contract/conv2/InstanceNorm/Reshape_1_eightbit_quantize_style_num:1"
  input: "transformer/contract/conv2/InstanceNorm/Reshape_1_eightbit_quantize_style_num:2"
  attr {
    key: "T"
    value {
      type: DT_QUINT8
    }
  }
}
node {
  name: "transformer/contract/conv2/InstanceNorm/Reshape_1"
  op: "Dequantize"
  input: "transformer/contract/conv2/InstanceNorm/Reshape_1_eightbit_quantized_reshape"
  input: "transformer/contract/conv2/InstanceNorm/Reshape_1_eightbit_quantized_reshape:1"
  input: "transformer/contract/conv2/InstanceNorm/Reshape_1_eightbit_quantized_reshape:2"
  attr {
    key: "T"
    value {
      type: DT_QUINT8
    }
  }
  attr {
    key: "mode"
    value {
      s: "MIN_FIRST"
    }
  }
}
node {
  name: "transformer/contract/conv2/InstanceNorm/gamma"
  op: "Const"
  attr {
    key: "dtype"
    value {
      type: DT_FLOAT
    }
  }
  attr {
    key: "value"
    value {
      tensor {
        dtype: DT_FLOAT
        tensor_shape {
          dim {
            size: 26
          }
          dim {
            size: 32
          }
        }
        tensor_content: "…"
      }
    }
  }
}
node {
  name: "transformer/contract/conv2/InstanceNorm/mul_1"
  op: "Mul"
  input: "transformer/contract/conv2/InstanceNorm/Reshape_1"
  input: "transformer/contract/conv2/InstanceNorm/gamma"
  attr {
    key: "T"
    value {
      type: DT_FLOAT
    }
  }
}
node {
  name: "transformer/contract/conv2/InstanceNorm/Sum_1/reduction_indices"
  op: "Const"
  attr {
    key: "dtype"
    value {
      type: DT_INT32
    }
  }
  attr {
    key: "value"
    value {
      tensor {
        dtype: DT_INT32
        tensor_shape {
        }
        int_val: 0
      }
    }
  }
}
node {
  name: "transformer/contract/conv2/InstanceNorm/Sum_1"
  op: "Sum"
  input: "transformer/contract/conv2/InstanceNorm/mul_1"
  input: "transformer/contract/conv2/InstanceNorm/Sum_1/reduction_indices"
  attr {
    key: "T"
    value {
      type: DT_FLOAT
    }
  }
  attr {
    key: "Tidx"
    value {
      type: DT_INT32
    }
  }
  attr {
    key: "keep_dims"
    value {
      b: true
    }
  }
}
node {
  name: "transformer/contract/conv2/InstanceNorm/ExpandDims_2/dim"
  op: "Const"
  attr {
    key: "dtype"
    value {
      type: DT_INT32
    }
  }
  attr {
    key: "value"
    value {
      tensor {
        dtype: DT_INT32
        tensor_shape {
        }
        int_val: 1
      }
    }
  }
}
node {
  name: "transformer/contract/conv2/InstanceNorm/ExpandDims_2"
  op: "ExpandDims"
  input: "transformer/contract/conv2/InstanceNorm/Sum_1"
  input: "transformer/contract/conv2/InstanceNorm/ExpandDims_2/dim"
  attr {
    key: "T"
    value {
      type: DT_FLOAT
    }
  }
  attr {
    key: "Tdim"
    value {
      type: DT_INT32
    }
  }
}
node {
  name: "transformer/contract/conv2/InstanceNorm/ExpandDims_3/dim"
  op: "Const"
  attr {
    key: "dtype"
    value {
      type: DT_INT32
    }
  }
  attr {
    key: "value"
    value {
      tensor {
        dtype: DT_INT32
        tensor_shape {
        }
        int_val: 1
      }
    }
  }
}
node {
  name: "transformer/contract/conv2/InstanceNorm/ExpandDims_3"
  op: "ExpandDims"
  input: "transformer/contract/conv2/InstanceNorm/ExpandDims_2"
  input: "transformer/contract/conv2/InstanceNorm/ExpandDims_3/dim"
  attr {
    key: "T"
    value {
      type: DT_FLOAT
    }
  }
  attr {
    key: "Tdim"
    value {
      type: DT_INT32
    }
  }
}
node {
  name: "transformer/contract/conv2/InstanceNorm/batchnorm/mul"
  op: "Mul"
  input: "transformer/contract/conv2/InstanceNorm/batchnorm/Rsqrt"
  input: "transformer/contract/conv2/InstanceNorm/ExpandDims_3"
  attr {
    key: "T"
    value {
      type: DT_FLOAT
    }
  }
}
node {
  name: "transformer/contract/conv2/InstanceNorm/batchnorm/mul_1"
  op: "Mul"
  input: "transformer/contract/conv2/convolution"
  input: "transformer/contract/conv2/InstanceNorm/batchnorm/mul"
  attr {
    key: "T"
    value {
      type: DT_FLOAT
    }
  }
}
node {
  name: "transformer/contract/conv2/InstanceNorm/Reshape/shape"
  op: "Const"
  attr {
    key: "dtype"
    value {
      type: DT_INT32
    }
  }
  attr {
    key: "value"
    value {
      tensor {
        dtype: DT_INT32
        tensor_shape {
          dim {
            size: 2
          }
        }
        tensor_content: "\032\000\000\000\001\000\000\000"
      }
    }
  }
}
node {
  name: "transformer/contract/conv2/InstanceNorm/Reshape_eightbit_reshape_dims"
  op: "Const"
  attr {
    key: "dtype"
    value {
      type: DT_INT32
    }
  }
  attr {
    key: "value"
    value {
      tensor {
        dtype: DT_INT32
        tensor_shape {
          dim {
            size: 1
          }
        }
        int_val: -1
      }
    }
  }
}
node {
  name: "transformer/contract/conv2/InstanceNorm/Reshape_eightbit_reduction_dims"
  op: "Const"
  attr {
    key: "dtype"
    value {
      type: DT_INT32
    }
  }
  attr {
    key: "value"
    value {
      tensor {
        dtype: DT_INT32
        tensor_shape {
          dim {
            size: 1
          }
        }
        int_val: 0
      }
    }
  }
}
node {
  name: "transformer/contract/conv2/InstanceNorm/Reshape_eightbit_reshape_style_num"
  op: "Reshape"
  input: "style_num"
  input: "transformer/contract/conv2/InstanceNorm/Reshape_eightbit_reshape_dims"
  attr {
    key: "T"
    value {
      type: DT_FLOAT
    }
  }
}
node {
  name: "transformer/contract/conv2/InstanceNorm/Reshape_eightbit_min_style_num"
  op: "Min"
  input: "transformer/contract/conv2/InstanceNorm/Reshape_eightbit_reshape_style_num"
  input: "transformer/contract/conv2/InstanceNorm/Reshape_eightbit_reduction_dims"
  attr {
    key: "T"
    value {
      type: DT_FLOAT
    }
  }
  attr {
    key: "keep_dims"
    value {
      b: false
    }
  }
}
node {
  name: "transformer/contract/conv2/InstanceNorm/Reshape_eightbit_max_style_num"
  op: "Max"
  input: "transformer/contract/conv2/InstanceNorm/Reshape_eightbit_reshape_style_num"
  input: "transformer/contract/conv2/InstanceNorm/Reshape_eightbit_reduction_dims"
  attr {
    key: "T"
    value {
      type: DT_FLOAT
    }
  }
  attr {
    key: "keep_dims"
    value {
      b: false
    }
  }
}
node {
  name: "transformer/contract/conv2/InstanceNorm/Reshape_eightbit_quantize_style_num"
  op: "QuantizeV2"
  input: "style_num"
  input: "transformer/contract/conv2/InstanceNorm/Reshape_eightbit_min_style_num"
  input: "transformer/contract/conv2/InstanceNorm/Reshape_eightbit_max_style_num"
  attr {
    key: "T"
    value {
      type: DT_QUINT8
    }
  }
  attr {
    key: "mode"
    value {
      s: "MIN_FIRST"
    }
  }
}
node {
  name: "transformer/contract/conv2/InstanceNorm/Reshape_eightbit_quantized_reshape"
  op: "QuantizedReshape"
  input: "transformer/contract/conv2/InstanceNorm/Reshape_eightbit_quantize_style_num"
  input: "transformer/contract/conv2/InstanceNorm/Reshape/shape"
  input: "transformer/contract/conv2/InstanceNorm/Reshape_eightbit_quantize_style_num:1"
  input: "transformer/contract/conv2/InstanceNorm/Reshape_eightbit_quantize_style_num:2"
  attr {
    key: "T"
    value {
      type: DT_QUINT8
    }
  }
}
node {
  name: "transformer/contract/conv2/InstanceNorm/Reshape"
  op: "Dequantize"
  input: "transformer/contract/conv2/InstanceNorm/Reshape_eightbit_quantized_reshape"
  input: "transformer/contract/conv2/InstanceNorm/Reshape_eightbit_quantized_reshape:1"
  input: "transformer/contract/conv2/InstanceNorm/Reshape_eightbit_quantized_reshape:2"
  attr {
    key: "T"
    value {
      type: DT_QUINT8
    }
  }
  attr {
    key: "mode"
    value {
      s: "MIN_FIRST"
    }
  }
}
node {
  name: "transformer/contract/conv2/InstanceNorm/beta"
  op: "Const"
  attr {
    key: "dtype"
    value {
      type: DT_FLOAT
    }
  }
  attr {
    key: "value"
    value {
      tensor {
        dtype: DT_FLOAT
        tensor_shape {
          dim {
            size: 26
          }
          dim {
            size: 32
          }
        }
        tensor_content: "…"
      }
    }
  }
}
node {
  name: "transformer/contract/conv2/InstanceNorm/mul"
  op: "Mul"
  input: "transformer/contract/conv2/InstanceNorm/Reshape"
  input: "transformer/contract/conv2/InstanceNorm/beta"
  attr {
    key: "T"
    value {
      type: DT_FLOAT
    }
  }
}
node {
  name: "transformer/contract/conv2/InstanceNorm/Sum/reduction_indices"
  op: "Const"
  attr {
    key: "dtype"
    value {
      type: DT_INT32
    }
  }
  attr {
    key: "value"
    value {
      tensor {
        dtype: DT_INT32
        tensor_shape {
        }
        int_val: 0
      }
    }
  }
}
node {
  name: "transformer/contract/conv2/InstanceNorm/Sum"
  op: "Sum"
  input: "transformer/contract/conv2/InstanceNorm/mul"
  input: "transformer/contract/conv2/InstanceNorm/Sum/reduction_indices"
  attr {
    key: "T"
    value {
      type: DT_FLOAT
    }
  }
  attr {
    key: "Tidx"
    value {
      type: DT_INT32
    }
  }
  attr {
    key: "keep_dims"
    value {
      b: true
    }
  }
}
node {
  name: "transformer/contract/conv2/InstanceNorm/ExpandDims/dim"
  op: "Const"
  attr {
    key: "dtype"
    value {
      type: DT_INT32
    }
  }
  attr {
    key: "value"
    value {
      tensor {
        dtype: DT_INT32
        tensor_shape {
        }
        int_val: 1
      }
    }
  }
}
node {
  name: "transformer/contract/conv2/InstanceNorm/ExpandDims"
  op: "ExpandDims"
  input: "transformer/contract/conv2/InstanceNorm/Sum"
  input: "transformer/contract/conv2/InstanceNorm/ExpandDims/dim"
  attr {
    key: "T"
    value {
      type: DT_FLOAT
    }
  }
  attr {
    key: "Tdim"
    value {
      type: DT_INT32
    }
  }
}
node {
  name: "transformer/contract/conv2/InstanceNorm/ExpandDims_1/dim"
  op: "Const"
  attr {
    key: "dtype"
    value {
      type: DT_INT32
    }
  }
  attr {
    key: "value"
    value {
      tensor {
        dtype: DT_INT32
        tensor_shape {
        }
        int_val: 1
      }
    }
  }
}
node {
  name: "transformer/contract/conv2/InstanceNorm/ExpandDims_1"
  op: "ExpandDims"
  input: "transformer/contract/conv2/InstanceNorm/ExpandDims"
  input: "transformer/contract/conv2/InstanceNorm/ExpandDims_1/dim"
  attr {
    key: "T"
    value {
      type: DT_FLOAT
    }
  }
  attr {
    key: "Tdim"
    value {
      type: DT_INT32
    }
  }
}
node {
  name: "transformer/contract/conv2/InstanceNorm/batchnorm/mul_2"
  op: "Mul"
  input: "transformer/contract/conv2/InstanceNorm/moments/normalize/mean"
  input: "transformer/contract/conv2/InstanceNorm/batchnorm/mul"
  attr {
    key: "T"
    value {
      type: DT_FLOAT
    }
  }
}
node {
  name: "transformer/contract/conv2/InstanceNorm/batchnorm/sub"
  op: "Sub"
  input: "transformer/contract/conv2/InstanceNorm/ExpandDims_1"
  input: "transformer/contract/conv2/InstanceNorm/batchnorm/mul_2"
  attr {
    key: "T"
    value {
      type: DT_FLOAT
    }
  }
}
node {
  name: "transformer/contract/conv2/InstanceNorm/batchnorm/add_1"
  op: "Add"
  input: "transformer/contract/conv2/InstanceNorm/batchnorm/mul_1"
  input: "transformer/contract/conv2/InstanceNorm/batchnorm/sub"
  attr {
    key: "T"
    value {
      type: DT_FLOAT
    }
  }
}
node {
  name: "transformer/contract/conv2/Relu_eightbit_reshape_dims"
  op: "Const"
  attr {
    key: "dtype"
    value {
      type: DT_INT32
    }
  }
  attr {
    key: "value"
    value {
      tensor {
        dtype: DT_INT32
        tensor_shape {
          dim {
            size: 1
          }
        }
        int_val: -1
      }
    }
  }
}
node {
  name: "transformer/contract/conv2/Relu_eightbit_reduction_dims"
  op: "Const"
  attr {
    key: "dtype"
    value {
      type: DT_INT32
    }
  }
  attr {
    key: "value"
    value {
      tensor {
        dtype: DT_INT32
        tensor_shape {
          dim {
            size: 1
          }
        }
        int_val: 0
      }
    }
  }
}
node {
  name: "transformer/contract/conv2/Relu_eightbit_reshape_transformer/contract/conv2/InstanceNorm/batchnorm/add_1"
  op: "Reshape"
  input: "transformer/contract/conv2/InstanceNorm/batchnorm/add_1"
  input: "transformer/contract/conv2/Relu_eightbit_reshape_dims"
  attr {
    key: "T"
    value {
      type: DT_FLOAT
    }
  }
}
node {
  name: "transformer/contract/conv2/Relu_eightbit_min_transformer/contract/conv2/InstanceNorm/batchnorm/add_1"
  op: "Min"
  input: "transformer/contract/conv2/Relu_eightbit_reshape_transformer/contract/conv2/InstanceNorm/batchnorm/add_1"
  input: "transformer/contract/conv2/Relu_eightbit_reduction_dims"
  attr {
    key: "T"
    value {
      type: DT_FLOAT
    }
  }
  attr {
    key: "keep_dims"
    value {
      b: false
    }
  }
}
node {
  name: "transformer/contract/conv2/Relu_eightbit_max_transformer/contract/conv2/InstanceNorm/batchnorm/add_1"
  op: "Max"
  input: "transformer/contract/conv2/Relu_eightbit_reshape_transformer/contract/conv2/InstanceNorm/batchnorm/add_1"
  input: "transformer/contract/conv2/Relu_eightbit_reduction_dims"
  attr {
    key: "T"
    value {
      type: DT_FLOAT
    }
  }
  attr {
    key: "keep_dims"
    value {
      b: false
    }
  }
}
node {
  name: "transformer/contract/conv2/Relu_eightbit_quantize_transformer/contract/conv2/InstanceNorm/batchnorm/add_1"
  op: "QuantizeV2"
  input: "transformer/contract/conv2/InstanceNorm/batchnorm/add_1"
  input: "transformer/contract/conv2/Relu_eightbit_min_transformer/contract/conv2/InstanceNorm/batchnorm/add_1"
  input: "transformer/contract/conv2/Relu_eightbit_max_transformer/contract/conv2/InstanceNorm/batchnorm/add_1"
  attr {
    key: "T"
    value {
      type: DT_QUINT8
    }
  }
  attr {
    key: "mode"
    value {
      s: "MIN_FIRST"
    }
  }
}
node {
  name: "transformer/contract/conv2/Relu_eightbit_quantized"
  op: "QuantizedRelu"
  input: "transformer/contract/conv2/Relu_eightbit_quantize_transformer/contract/conv2/InstanceNorm/batchnorm/add_1"
  input: "transformer/contract/conv2/Relu_eightbit_quantize_transformer/contract/conv2/InstanceNorm/batchnorm/add_1:1"
  input: "transformer/contract/conv2/Relu_eightbit_quantize_transformer/contract/conv2/InstanceNorm/batchnorm/add_1:2"
  attr {
    key: "Tinput"
    value {
      type: DT_QUINT8
    }
  }
}
node {
  name: "transformer/contract/conv2/Relu"
  op: "Dequantize"
  input: "transformer/contract/conv2/Relu_eightbit_quantized"
  input: "transformer/contract/conv2/Relu_eightbit_quantized:1"
  input: "transformer/contract/conv2/Relu_eightbit_quantized:2"
  attr {
    key: "T"
    value {
      type: DT_QUINT8
    }
  }
  attr {
    key: "mode"
    value {
      s: "MIN_FIRST"
    }
  }
}
node {
  name: "transformer/contract/MirrorPad_2/paddings"
  op: "Const"
  attr {
    key: "dtype"
    value {
      type: DT_INT32
    }
  }
  attr {
    key: "value"
    value {
      tensor {
        dtype: DT_INT32
        tensor_shape {
          dim {
            size: 4
          }
          dim {
            size: 2
          }
        }
        tensor_content: "…"
      }
    }
  }
}
node {
  name: "transformer/contract/MirrorPad_2"
  op: "MirrorPad"
  input: "transformer/contract/conv2/Relu"
  input: "transformer/contract/MirrorPad_2/paddings"
  attr {
    key: "T"
    value {
      type: DT_FLOAT
    }
  }
  attr {
    key: "Tpaddings"
    value {
      type: DT_INT32
    }
  }
  attr {
    key: "mode"
    value {
      s: "REFLECT"
    }
  }
}
node {
  name: "transformer/contract/conv3/weights_quint8_const"
  op: "Const"
  attr {
    key: "dtype"
    value {
      type: DT_QUINT8
    }
  }
  attr {
    key: "value"
    value {
      tensor {
        dtype: DT_QUINT8
        tensor_shape {
          dim {
            size: 3
          }
          dim {
            size: 3
          }
          dim {
            size: 32
          }
          dim {
            size: 32
          }
        }
        tensor_content: "…"
      }
    }
  }
}
node {
  name: "transformer/contract/conv3/weights_min"
  op: "Const"
  attr {
    key: "dtype"
    value {
      type: DT_FLOAT
    }
  }
  attr {
    key: "value"
    value {
      tensor {
        dtype: DT_FLOAT
        tensor_shape {
        }
        float_val: -1.36900472641
      }
    }
  }
}
node {
  name: "transformer/contract/conv3/weights_max"
  op: "Const"
  attr {
    key: "dtype"
    value {
      type: DT_FLOAT
    }
  }
  attr {
    key: "value"
    value {
      tensor {
        dtype: DT_FLOAT
        tensor_shape {
        }
        float_val: 0.961051285267
      }
    }
  }
}
node {
  name: "transformer/contract/conv3/convolution_eightbit_reshape_dims"
  op: "Const"
  attr {
    key: "dtype"
    value {
      type: DT_INT32
    }
  }
  attr {
    key: "value"
    value {
      tensor {
        dtype: DT_INT32
        tensor_shape {
          dim {
            size: 1
          }
        }
        int_val: -1
      }
    }
  }
}
node {
  name: "transformer/contract/conv3/convolution_eightbit_reduction_dims"
  op: "Const"
  attr {
    key: "dtype"
    value {
      type: DT_INT32
    }
  }
  attr {
    key: "value"
    value {
      tensor {
        dtype: DT_INT32
        tensor_shape {
          dim {
            size: 1
          }
        }
        int_val: 0
      }
    }
  }
}
node {
  name: "transformer/contract/conv3/convolution_eightbit_reshape_transformer/contract/MirrorPad_2"
  op: "Reshape"
  input: "transformer/contract/MirrorPad_2"
  input: "transformer/contract/conv3/convolution_eightbit_reshape_dims"
  attr {
    key: "T"
    value {
      type: DT_FLOAT
    }
  }
}
node {
  name: "transformer/contract/conv3/convolution_eightbit_min_transformer/contract/MirrorPad_2"
  op: "Min"
  input: "transformer/contract/conv3/convolution_eightbit_reshape_transformer/contract/MirrorPad_2"
  input: "transformer/contract/conv3/convolution_eightbit_reduction_dims"
  attr {
    key: "T"
    value {
      type: DT_FLOAT
    }
  }
  attr {
    key: "keep_dims"
    value {
      b: false
    }
  }
}
node {
  name: "transformer/contract/conv3/convolution_eightbit_max_transformer/contract/MirrorPad_2"
  op: "Max"
  input: "transformer/contract/conv3/convolution_eightbit_reshape_transformer/contract/MirrorPad_2"
  input: "transformer/contract/conv3/convolution_eightbit_reduction_dims"
  attr {
    key: "T"
    value {
      type: DT_FLOAT
    }
  }
  attr {
    key: "keep_dims"
    value {
      b: false
    }
  }
}
node {
  name: "transformer/contract/conv3/convolution_eightbit_quantize_transformer/contract/MirrorPad_2"
  op: "QuantizeV2"
  input: "transformer/contract/MirrorPad_2"
  input: "transformer/contract/conv3/convolution_eightbit_min_transformer/contract/MirrorPad_2"
  input: "transformer/contract/conv3/convolution_eightbit_max_transformer/contract/MirrorPad_2"
  attr {
    key: "T"
    value {
      type: DT_QUINT8
    }
  }
  attr {
    key: "mode"
    value {
      s: "MIN_FIRST"
    }
  }
}
node {
  name: "transformer/contract/conv3/convolution_eightbit_quantized_conv"
  op: "QuantizedConv2D"
  input: "transformer/contract/conv3/convolution_eightbit_quantize_transformer/contract/MirrorPad_2"
  input: "transformer/contract/conv3/weights_quint8_const"
  input: "transformer/contract/conv3/convolution_eightbit_quantize_transformer/contract/MirrorPad_2:1"
  input: "transformer/contract/conv3/convolution_eightbit_quantize_transformer/contract/MirrorPad_2:2"
  input: "transformer/contract/conv3/weights_min"
  input: "transformer/contract/conv3/weights_max"
  attr {
    key: "Tfilter"
    value {
      type: DT_QUINT8
    }
  }
  attr {
    key: "Tinput"
    value {
      type: DT_QUINT8
    }
  }
  attr {
    key: "out_type"
    value {
      type: DT_QINT32
    }
  }
  attr {
    key: "padding"
    value {
      s: "VALID"
    }
  }
  attr {
    key: "strides"
    value {
      list {
        i: 1
        i: 2
        i: 2
        i: 1
      }
    }
  }
}
node {
  name: "transformer/contract/conv3/convolution_eightbit_requant_range"
  op: "RequantizationRange"
  input: "transformer/contract/conv3/convolution_eightbit_quantized_conv"
  input: "transformer/contract/conv3/convolution_eightbit_quantized_conv:1"
  input: "transformer/contract/conv3/convolution_eightbit_quantized_conv:2"
  attr {
    key: "Tinput"
    value {
      type: DT_QINT32
    }
  }
}
node {
  name: "transformer/contract/conv3/convolution_eightbit_requantize"
  op: "Requantize"
  input: "transformer/contract/conv3/convolution_eightbit_quantized_conv"
  input: "transformer/contract/conv3/convolution_eightbit_quantized_conv:1"
  input: "transformer/contract/conv3/convolution_eightbit_quantized_conv:2"
  input: "transformer/contract/conv3/convolution_eightbit_requant_range:0"
  input: "transformer/contract/conv3/convolution_eightbit_requant_range:1"
  attr {
    key: "Tinput"
    value {
      type: DT_QINT32
    }
  }
  attr {
    key: "out_type"
    value {
      type: DT_QUINT8
    }
  }
}
node {
  name: "transformer/contract/conv3/convolution"
  op: "Dequantize"
  input: "transformer/contract/conv3/convolution_eightbit_requantize"
  input: "transformer/contract/conv3/convolution_eightbit_requantize:1"
  input: "transformer/contract/conv3/convolution_eightbit_requantize:2"
  attr {
    key: "T"
    value {
      type: DT_QUINT8
    }
  }
  attr {
    key: "mode"
    value {
      s: "MIN_FIRST"
    }
  }
}
node {
  name: "transformer/contract/conv3/InstanceNorm/moments/sufficient_statistics/Square"
  op: "Square"
  input: "transformer/contract/conv3/convolution"
  attr {
    key: "T"
    value {
      type: DT_FLOAT
    }
  }
}
node {
  name: "transformer/contract/conv3/InstanceNorm/moments/sufficient_statistics/var_ss/reduction_indices"
  op: "Const"
  attr {
    key: "dtype"
    value {
      type: DT_INT32
    }
  }
  attr {
    key: "value"
    value {
      tensor {
        dtype: DT_INT32
        tensor_shape {
          dim {
            size: 2
          }
        }
        tensor_content: "\001\000\000\000\002\000\000\000"
      }
    }
  }
}
node {
  name: "transformer/contract/conv3/InstanceNorm/moments/sufficient_statistics/var_ss"
  op: "Sum"
  input: "transformer/contract/conv3/InstanceNorm/moments/sufficient_statistics/Square"
  input: "transformer/contract/conv3/InstanceNorm/moments/sufficient_statistics/var_ss/reduction_indices"
  attr {
    key: "T"
    value {
      type: DT_FLOAT
    }
  }
  attr {
    key: "Tidx"
    value {
      type: DT_INT32
    }
  }
  attr {
    key: "keep_dims"
    value {
      b: true
    }
  }
}
node {
  name: "transformer/contract/conv3/InstanceNorm/moments/sufficient_statistics/Shape"
  op: "Shape"
  input: "transformer/contract/conv3/convolution"
  attr {
    key: "T"
    value {
      type: DT_FLOAT
    }
  }
  attr {
    key: "out_type"
    value {
      type: DT_INT32
    }
  }
}
node {
  name: "transformer/contract/conv3/InstanceNorm/moments/sufficient_statistics/Cast"
  op: "Cast"
  input: "transformer/contract/conv3/InstanceNorm/moments/sufficient_statistics/Shape"
  attr {
    key: "DstT"
    value {
      type: DT_FLOAT
    }
  }
  attr {
    key: "SrcT"
    value {
      type: DT_INT32
    }
  }
}
node {
  name: "transformer/contract/conv3/InstanceNorm/moments/sufficient_statistics/Gather/indices"
  op: "Const"
  attr {
    key: "dtype"
    value {
      type: DT_INT32
    }
  }
  attr {
    key: "value"
    value {
      tensor {
        dtype: DT_INT32
        tensor_shape {
          dim {
            size: 2
          }
        }
        tensor_content: "\001\000\000\000\002\000\000\000"
      }
    }
  }
}
node {
  name: "transformer/contract/conv3/InstanceNorm/moments/sufficient_statistics/Gather"
  op: "Gather"
  input: "transformer/contract/conv3/InstanceNorm/moments/sufficient_statistics/Cast"
  input: "transformer/contract/conv3/InstanceNorm/moments/sufficient_statistics/Gather/indices"
  attr {
    key: "Tindices"
    value {
      type: DT_INT32
    }
  }
  attr {
    key: "Tparams"
    value {
      type: DT_FLOAT
    }
  }
  attr {
    key: "validate_indices"
    value {
      b: true
    }
  }
}
node {
  name: "transformer/contract/conv3/InstanceNorm/moments/sufficient_statistics/Const"
  op: "Const"
  attr {
    key: "dtype"
    value {
      type: DT_INT32
    }
  }
  attr {
    key: "value"
    value {
      tensor {
        dtype: DT_INT32
        tensor_shape {
          dim {
            size: 1
          }
        }
        int_val: 0
      }
    }
  }
}
node {
  name: "transformer/contract/conv3/InstanceNorm/moments/sufficient_statistics/count"
  op: "Prod"
  input: "transformer/contract/conv3/InstanceNorm/moments/sufficient_statistics/Gather"
  input: "transformer/contract/conv3/InstanceNorm/moments/sufficient_statistics/Const"
  attr {
    key: "T"
    value {
      type: DT_FLOAT
    }
  }
  attr {
    key: "Tidx"
    value {
      type: DT_INT32
    }
  }
  attr {
    key: "keep_dims"
    value {
      b: false
    }
  }
}
node {
  name: "transformer/contract/conv3/InstanceNorm/moments/sufficient_statistics/mean_ss/reduction_indices"
  op: "Const"
  attr {
    key: "dtype"
    value {
      type: DT_INT32
    }
  }
  attr {
    key: "value"
    value {
      tensor {
        dtype: DT_INT32
        tensor_shape {
          dim {
            size: 2
          }
        }
        tensor_content: "\001\000\000\000\002\000\000\000"
      }
    }
  }
}
node {
  name: "transformer/contract/conv3/InstanceNorm/moments/sufficient_statistics/mean_ss"
  op: "Sum"
  input: "transformer/contract/conv3/convolution"
  input: "transformer/contract/conv3/InstanceNorm/moments/sufficient_statistics/mean_ss/reduction_indices"
  attr {
    key: "T"
    value {
      type: DT_FLOAT
    }
  }
  attr {
    key: "Tidx"
    value {
      type: DT_INT32
    }
  }
  attr {
    key: "keep_dims"
    value {
      b: true
    }
  }
}
node {
  name: "transformer/contract/conv3/InstanceNorm/moments/normalize/divisor"
  op: "Reciprocal"
  input: "transformer/contract/conv3/InstanceNorm/moments/sufficient_statistics/count"
  input: "^transformer/contract/conv3/InstanceNorm/moments/sufficient_statistics/mean_ss"
  input: "^transformer/contract/conv3/InstanceNorm/moments/sufficient_statistics/var_ss"
  attr {
    key: "T"
    value {
      type: DT_FLOAT
    }
  }
}
node {
  name: "transformer/contract/conv3/InstanceNorm/moments/normalize/Mul"
  op: "Mul"
  input: "transformer/contract/conv3/InstanceNorm/moments/sufficient_statistics/var_ss"
  input: "transformer/contract/conv3/InstanceNorm/moments/normalize/divisor"
  attr {
    key: "T"
    value {
      type: DT_FLOAT
    }
  }
}
node {
  name: "transformer/contract/conv3/InstanceNorm/moments/normalize/mean"
  op: "Mul"
  input: "transformer/contract/conv3/InstanceNorm/moments/sufficient_statistics/mean_ss"
  input: "transformer/contract/conv3/InstanceNorm/moments/normalize/divisor"
  attr {
    key: "T"
    value {
      type: DT_FLOAT
    }
  }
}
node {
  name: "transformer/contract/conv3/InstanceNorm/moments/normalize/Square"
  op: "Square"
  input: "transformer/contract/conv3/InstanceNorm/moments/normalize/mean"
  attr {
    key: "T"
    value {
      type: DT_FLOAT
    }
  }
}
node {
  name: "transformer/contract/conv3/InstanceNorm/moments/normalize/variance"
  op: "Sub"
  input: "transformer/contract/conv3/InstanceNorm/moments/normalize/Mul"
  input: "transformer/contract/conv3/InstanceNorm/moments/normalize/Square"
  attr {
    key: "T"
    value {
      type: DT_FLOAT
    }
  }
}
node {
  name: "transformer/contract/conv3/InstanceNorm/batchnorm/add/y"
  op: "Const"
  attr {
    key: "dtype"
    value {
      type: DT_FLOAT
    }
  }
  attr {
    key: "value"
    value {
      tensor {
        dtype: DT_FLOAT
        tensor_shape {
        }
        float_val: 9.99999974738e-06
      }
    }
  }
}
node {
  name: "transformer/contract/conv3/InstanceNorm/batchnorm/add"
  op: "Add"
  input: "transformer/contract/conv3/InstanceNorm/moments/normalize/variance"
  input: "transformer/contract/conv3/InstanceNorm/batchnorm/add/y"
  attr {
    key: "T"
    value {
      type: DT_FLOAT
    }
  }
}
node {
  name: "transformer/contract/conv3/InstanceNorm/batchnorm/Rsqrt"
  op: "Rsqrt"
  input: "transformer/contract/conv3/InstanceNorm/batchnorm/add"
  attr {
    key: "T"
    value {
      type: DT_FLOAT
    }
  }
}
node {
  name: "transformer/contract/conv3/InstanceNorm/Reshape_1/shape"
  op: "Const"
  attr {
    key: "dtype"
    value {
      type: DT_INT32
    }
  }
  attr {
    key: "value"
    value {
      tensor {
        dtype: DT_INT32
        tensor_shape {
          dim {
            size: 2
          }
        }
        tensor_content: "\032\000\000\000\001\000\000\000"
      }
    }
  }
}
node {
  name: "transformer/contract/conv3/InstanceNorm/Reshape_1_eightbit_reshape_dims"
  op: "Const"
  attr {
    key: "dtype"
    value {
      type: DT_INT32
    }
  }
  attr {
    key: "value"
    value {
      tensor {
        dtype: DT_INT32
        tensor_shape {
          dim {
            size: 1
          }
        }
        int_val: -1
      }
    }
  }
}
node {
  name: "transformer/contract/conv3/InstanceNorm/Reshape_1_eightbit_reduction_dims"
  op: "Const"
  attr {
    key: "dtype"
    value {
      type: DT_INT32
    }
  }
  attr {
    key: "value"
    value {
      tensor {
        dtype: DT_INT32
        tensor_shape {
          dim {
            size: 1
          }
        }
        int_val: 0
      }
    }
  }
}
node {
  name: "transformer/contract/conv3/InstanceNorm/Reshape_1_eightbit_reshape_style_num"
  op: "Reshape"
  input: "style_num"
  input: "transformer/contract/conv3/InstanceNorm/Reshape_1_eightbit_reshape_dims"
  attr {
    key: "T"
    value {
      type: DT_FLOAT
    }
  }
}
node {
  name: "transformer/contract/conv3/InstanceNorm/Reshape_1_eightbit_min_style_num"
  op: "Min"
  input: "transformer/contract/conv3/InstanceNorm/Reshape_1_eightbit_reshape_style_num"
  input: "transformer/contract/conv3/InstanceNorm/Reshape_1_eightbit_reduction_dims"
  attr {
    key: "T"
    value {
      type: DT_FLOAT
    }
  }
  attr {
    key: "keep_dims"
    value {
      b: false
    }
  }
}
node {
  name: "transformer/contract/conv3/InstanceNorm/Reshape_1_eightbit_max_style_num"
  op: "Max"
  input: "transformer/contract/conv3/InstanceNorm/Reshape_1_eightbit_reshape_style_num"
  input: "transformer/contract/conv3/InstanceNorm/Reshape_1_eightbit_reduction_dims"
  attr {
    key: "T"
    value {
      type: DT_FLOAT
    }
  }
  attr {
    key: "keep_dims"
    value {
      b: false
    }
  }
}
node {
  name: "transformer/contract/conv3/InstanceNorm/Reshape_1_eightbit_quantize_style_num"
  op: "QuantizeV2"
  input: "style_num"
  input: "transformer/contract/conv3/InstanceNorm/Reshape_1_eightbit_min_style_num"
  input: "transformer/contract/conv3/InstanceNorm/Reshape_1_eightbit_max_style_num"
  attr {
    key: "T"
    value {
      type: DT_QUINT8
    }
  }
  attr {
    key: "mode"
    value {
      s: "MIN_FIRST"
    }
  }
}
node {
  name: "transformer/contract/conv3/InstanceNorm/Reshape_1_eightbit_quantized_reshape"
  op: "QuantizedReshape"
  input: "transformer/contract/conv3/InstanceNorm/Reshape_1_eightbit_quantize_style_num"
  input: "transformer/contract/conv3/InstanceNorm/Reshape_1/shape"
  input: "transformer/contract/conv3/InstanceNorm/Reshape_1_eightbit_quantize_style_num:1"
  input: "transformer/contract/conv3/InstanceNorm/Reshape_1_eightbit_quantize_style_num:2"
  attr {
    key: "T"
    value {
      type: DT_QUINT8
    }
  }
}
node {
  name: "transformer/contract/conv3/InstanceNorm/Reshape_1"
  op: "Dequantize"
  input: "transformer/contract/conv3/InstanceNorm/Reshape_1_eightbit_quantized_reshape"
  input: "transformer/contract/conv3/InstanceNorm/Reshape_1_eightbit_quantized_reshape:1"
  input: "transformer/contract/conv3/InstanceNorm/Reshape_1_eightbit_quantized_reshape:2"
  attr {
    key: "T"
    value {
      type: DT_QUINT8
    }
  }
  attr {
    key: "mode"
    value {
      s: "MIN_FIRST"
    }
  }
}
node {
  name: "transformer/contract/conv3/InstanceNorm/gamma"
  op: "Const"
  attr {
    key: "dtype"
    value {
      type: DT_FLOAT
    }
  }
  attr {
    key: "value"
    value {
      tensor {
        dtype: DT_FLOAT
        tensor_shape {
          dim {
            size: 26
          }
          dim {
            size: 32
          }
        }
        tensor_content: "…"
      }
    }
  }
}
node {
  name: "transformer/contract/conv3/InstanceNorm/mul_1"
  op: "Mul"
  input: "transformer/contract/conv3/InstanceNorm/Reshape_1"
  input: "transformer/contract/conv3/InstanceNorm/gamma"
  attr {
    key: "T"
    value {
      type: DT_FLOAT
    }
  }
}
node {
  name: "transformer/contract/conv3/InstanceNorm/Sum_1/reduction_indices"
  op: "Const"
  attr {
    key: "dtype"
    value {
      type: DT_INT32
    }
  }
  attr {
    key: "value"
    value {
      tensor {
        dtype: DT_INT32
        tensor_shape {
        }
        int_val: 0
      }
    }
  }
}
node {
  name: "transformer/contract/conv3/InstanceNorm/Sum_1"
  op: "Sum"
  input: "transformer/contract/conv3/InstanceNorm/mul_1"
  input: "transformer/contract/conv3/InstanceNorm/Sum_1/reduction_indices"
  attr {
    key: "T"
    value {
      type: DT_FLOAT
    }
  }
  attr {
    key: "Tidx"
    value {
      type: DT_INT32
    }
  }
  attr {
    key: "keep_dims"
    value {
      b: true
    }
  }
}
node {
  name: "transformer/contract/conv3/InstanceNorm/ExpandDims_2/dim"
  op: "Const"
  attr {
    key: "dtype"
    value {
      type: DT_INT32
    }
  }
  attr {
    key: "value"
    value {
      tensor {
        dtype: DT_INT32
        tensor_shape {
        }
        int_val: 1
      }
    }
  }
}
node {
  name: "transformer/contract/conv3/InstanceNorm/ExpandDims_2"
  op: "ExpandDims"
  input: "transformer/contract/conv3/InstanceNorm/Sum_1"
  input: "transformer/contract/conv3/InstanceNorm/ExpandDims_2/dim"
  attr {
    key: "T"
    value {
      type: DT_FLOAT
    }
  }
  attr {
    key: "Tdim"
    value {
      type: DT_INT32
    }
  }
}
node {
  name: "transformer/contract/conv3/InstanceNorm/ExpandDims_3/dim"
  op: "Const"
  attr {
    key: "dtype"
    value {
      type: DT_INT32
    }
  }
  attr {
    key: "value"
    value {
      tensor {
        dtype: DT_INT32
        tensor_shape {
        }
        int_val: 1
      }
    }
  }
}
node {
  name: "transformer/contract/conv3/InstanceNorm/ExpandDims_3"
  op: "ExpandDims"
  input: "transformer/contract/conv3/InstanceNorm/ExpandDims_2"
  input: "transformer/contract/conv3/InstanceNorm/ExpandDims_3/dim"
  attr {
    key: "T"
    value {
      type: DT_FLOAT
    }
  }
  attr {
    key: "Tdim"
    value {
      type: DT_INT32
    }
  }
}
node {
  name: "transformer/contract/conv3/InstanceNorm/batchnorm/mul"
  op: "Mul"
  input: "transformer/contract/conv3/InstanceNorm/batchnorm/Rsqrt"
  input: "transformer/contract/conv3/InstanceNorm/ExpandDims_3"
  attr {
    key: "T"
    value {
      type: DT_FLOAT
    }
  }
}
node {
  name: "transformer/contract/conv3/InstanceNorm/batchnorm/mul_1"
  op: "Mul"
  input: "transformer/contract/conv3/convolution"
  input: "transformer/contract/conv3/InstanceNorm/batchnorm/mul"
  attr {
    key: "T"
    value {
      type: DT_FLOAT
    }
  }
}
node {
  name: "transformer/contract/conv3/InstanceNorm/Reshape/shape"
  op: "Const"
  attr {
    key: "dtype"
    value {
      type: DT_INT32
    }
  }
  attr {
    key: "value"
    value {
      tensor {
        dtype: DT_INT32
        tensor_shape {
          dim {
            size: 2
          }
        }
        tensor_content: "\032\000\000\000\001\000\000\000"
      }
    }
  }
}
node {
  name: "transformer/contract/conv3/InstanceNorm/Reshape_eightbit_reshape_dims"
  op: "Const"
  attr {
    key: "dtype"
    value {
      type: DT_INT32
    }
  }
  attr {
    key: "value"
    value {
      tensor {
        dtype: DT_INT32
        tensor_shape {
          dim {
            size: 1
          }
        }
        int_val: -1
      }
    }
  }
}
node {
  name: "transformer/contract/conv3/InstanceNorm/Reshape_eightbit_reduction_dims"
  op: "Const"
  attr {
    key: "dtype"
    value {
      type: DT_INT32
    }
  }
  attr {
    key: "value"
    value {
      tensor {
        dtype: DT_INT32
        tensor_shape {
          dim {
            size: 1
          }
        }
        int_val: 0
      }
    }
  }
}
node {
  name: "transformer/contract/conv3/InstanceNorm/Reshape_eightbit_reshape_style_num"
  op: "Reshape"
  input: "style_num"
  input: "transformer/contract/conv3/InstanceNorm/Reshape_eightbit_reshape_dims"
  attr {
    key: "T"
    value {
      type: DT_FLOAT
    }
  }
}
node {
  name: "transformer/contract/conv3/InstanceNorm/Reshape_eightbit_min_style_num"
  op: "Min"
  input: "transformer/contract/conv3/InstanceNorm/Reshape_eightbit_reshape_style_num"
  input: "transformer/contract/conv3/InstanceNorm/Reshape_eightbit_reduction_dims"
  attr {
    key: "T"
    value {
      type: DT_FLOAT
    }
  }
  attr {
    key: "keep_dims"
    value {
      b: false
    }
  }
}
node {
  name: "transformer/contract/conv3/InstanceNorm/Reshape_eightbit_max_style_num"
  op: "Max"
  input: "transformer/contract/conv3/InstanceNorm/Reshape_eightbit_reshape_style_num"
  input: "transformer/contract/conv3/InstanceNorm/Reshape_eightbit_reduction_dims"
  attr {
    key: "T"
    value {
      type: DT_FLOAT
    }
  }
  attr {
    key: "keep_dims"
    value {
      b: false
    }
  }
}
node {
  name: "transformer/contract/conv3/InstanceNorm/Reshape_eightbit_quantize_style_num"
  op: "QuantizeV2"
  input: "style_num"
  input: "transformer/contract/conv3/InstanceNorm/Reshape_eightbit_min_style_num"
  input: "transformer/contract/conv3/InstanceNorm/Reshape_eightbit_max_style_num"
  attr {
    key: "T"
    value {
      type: DT_QUINT8
    }
  }
  attr {
    key: "mode"
    value {
      s: "MIN_FIRST"
    }
  }
}
node {
  name: "transformer/contract/conv3/InstanceNorm/Reshape_eightbit_quantized_reshape"
  op: "QuantizedReshape"
  input: "transformer/contract/conv3/InstanceNorm/Reshape_eightbit_quantize_style_num"
  input: "transformer/contract/conv3/InstanceNorm/Reshape/shape"
  input: "transformer/contract/conv3/InstanceNorm/Reshape_eightbit_quantize_style_num:1"
  input: "transformer/contract/conv3/InstanceNorm/Reshape_eightbit_quantize_style_num:2"
  attr {
    key: "T"
    value {
      type: DT_QUINT8
    }
  }
}
node {
  name: "transformer/contract/conv3/InstanceNorm/Reshape"
  op: "Dequantize"
  input: "transformer/contract/conv3/InstanceNorm/Reshape_eightbit_quantized_reshape"
  input: "transformer/contract/conv3/InstanceNorm/Reshape_eightbit_quantized_reshape:1"
  input: "transformer/contract/conv3/InstanceNorm/Reshape_eightbit_quantized_reshape:2"
  attr {
    key: "T"
    value {
      type: DT_QUINT8
    }
  }
  attr {
    key: "mode"
    value {
      s: "MIN_FIRST"
    }
  }
}
node {
  name: "transformer/contract/conv3/InstanceNorm/beta"
  op: "Const"
  attr {
    key: "dtype"
    value {
      type: DT_FLOAT
    }
  }
  attr {
    key: "value"
    value {
      tensor {
        dtype: DT_FLOAT
        tensor_shape {
          dim {
            size: 26
          }
          dim {
            size: 32
          }
        }
        tensor_content: "…"
      }
    }
  }
}
node {
  name: "transformer/contract/conv3/InstanceNorm/mul"
  op: "Mul"
  input: "transformer/contract/conv3/InstanceNorm/Reshape"
  input: "transformer/contract/conv3/InstanceNorm/beta"
  attr {
    key: "T"
    value {
      type: DT_FLOAT
    }
  }
}
node {
  name: "transformer/contract/conv3/InstanceNorm/Sum/reduction_indices"
  op: "Const"
  attr {
    key: "dtype"
    value {
      type: DT_INT32
    }
  }
  attr {
    key: "value"
    value {
      tensor {
        dtype: DT_INT32
        tensor_shape {
        }
        int_val: 0
      }
    }
  }
}
node {
  name: "transformer/contract/conv3/InstanceNorm/Sum"
  op: "Sum"
  input: "transformer/contract/conv3/InstanceNorm/mul"
  input: "transformer/contract/conv3/InstanceNorm/Sum/reduction_indices"
  attr {
    key: "T"
    value {
      type: DT_FLOAT
    }
  }
  attr {
    key: "Tidx"
    value {
      type: DT_INT32
    }
  }
  attr {
    key: "keep_dims"
    value {
      b: true
    }
  }
}
node {
  name: "transformer/contract/conv3/InstanceNorm/ExpandDims/dim"
  op: "Const"
  attr {
    key: "dtype"
    value {
      type: DT_INT32
    }
  }
  attr {
    key: "value"
    value {
      tensor {
        dtype: DT_INT32
        tensor_shape {
        }
        int_val: 1
      }
    }
  }
}
node {
  name: "transformer/contract/conv3/InstanceNorm/ExpandDims"
  op: "ExpandDims"
  input: "transformer/contract/conv3/InstanceNorm/Sum"
  input: "transformer/contract/conv3/InstanceNorm/ExpandDims/dim"
  attr {
    key: "T"
    value {
      type: DT_FLOAT
    }
  }
  attr {
    key: "Tdim"
    value {
      type: DT_INT32
    }
  }
}
node {
  name: "transformer/contract/conv3/InstanceNorm/ExpandDims_1/dim"
  op: "Const"
  attr {
    key: "dtype"
    value {
      type: DT_INT32
    }
  }
  attr {
    key: "value"
    value {
      tensor {
        dtype: DT_INT32
        tensor_shape {
        }
        int_val: 1
      }
    }
  }
}
node {
  name: "transformer/contract/conv3/InstanceNorm/ExpandDims_1"
  op: "ExpandDims"
  input: "transformer/contract/conv3/InstanceNorm/ExpandDims"
  input: "transformer/contract/conv3/InstanceNorm/ExpandDims_1/dim"
  attr {
    key: "T"
    value {
      type: DT_FLOAT
    }
  }
  attr {
    key: "Tdim"
    value {
      type: DT_INT32
    }
  }
}
node {
  name: "transformer/contract/conv3/InstanceNorm/batchnorm/mul_2"
  op: "Mul"
  input: "transformer/contract/conv3/InstanceNorm/moments/normalize/mean"
  input: "transformer/contract/conv3/InstanceNorm/batchnorm/mul"
  attr {
    key: "T"
    value {
      type: DT_FLOAT
    }
  }
}
node {
  name: "transformer/contract/conv3/InstanceNorm/batchnorm/sub"
  op: "Sub"
  input: "transformer/contract/conv3/InstanceNorm/ExpandDims_1"
  input: "transformer/contract/conv3/InstanceNorm/batchnorm/mul_2"
  attr {
    key: "T"
    value {
      type: DT_FLOAT
    }
  }
}
node {
  name: "transformer/contract/conv3/InstanceNorm/batchnorm/add_1"
  op: "Add"
  input: "transformer/contract/conv3/InstanceNorm/batchnorm/mul_1"
  input: "transformer/contract/conv3/InstanceNorm/batchnorm/sub"
  attr {
    key: "T"
    value {
      type: DT_FLOAT
    }
  }
}
node {
  name: "transformer/contract/conv3/Relu_eightbit_reshape_dims"
  op: "Const"
  attr {
    key: "dtype"
    value {
      type: DT_INT32
    }
  }
  attr {
    key: "value"
    value {
      tensor {
        dtype: DT_INT32
        tensor_shape {
          dim {
            size: 1
          }
        }
        int_val: -1
      }
    }
  }
}
node {
  name: "transformer/contract/conv3/Relu_eightbit_reduction_dims"
  op: "Const"
  attr {
    key: "dtype"
    value {
      type: DT_INT32
    }
  }
  attr {
    key: "value"
    value {
      tensor {
        dtype: DT_INT32
        tensor_shape {
          dim {
            size: 1
          }
        }
        int_val: 0
      }
    }
  }
}
node {
  name: "transformer/contract/conv3/Relu_eightbit_reshape_transformer/contract/conv3/InstanceNorm/batchnorm/add_1"
  op: "Reshape"
  input: "transformer/contract/conv3/InstanceNorm/batchnorm/add_1"
  input: "transformer/contract/conv3/Relu_eightbit_reshape_dims"
  attr {
    key: "T"
    value {
      type: DT_FLOAT
    }
  }
}
node {
  name: "transformer/contract/conv3/Relu_eightbit_min_transformer/contract/conv3/InstanceNorm/batchnorm/add_1"
  op: "Min"
  input: "transformer/contract/conv3/Relu_eightbit_reshape_transformer/contract/conv3/InstanceNorm/batchnorm/add_1"
  input: "transformer/contract/conv3/Relu_eightbit_reduction_dims"
  attr {
    key: "T"
    value {
      type: DT_FLOAT
    }
  }
  attr {
    key: "keep_dims"
    value {
      b: false
    }
  }
}
node {
  name: "transformer/contract/conv3/Relu_eightbit_max_transformer/contract/conv3/InstanceNorm/batchnorm/add_1"
  op: "Max"
  input: "transformer/contract/conv3/Relu_eightbit_reshape_transformer/contract/conv3/InstanceNorm/batchnorm/add_1"
  input: "transformer/contract/conv3/Relu_eightbit_reduction_dims"
  attr {
    key: "T"
    value {
      type: DT_FLOAT
    }
  }
  attr {
    key: "keep_dims"
    value {
      b: false
    }
  }
}
node {
  name: "transformer/contract/conv3/Relu_eightbit_quantize_transformer/contract/conv3/InstanceNorm/batchnorm/add_1"
  op: "QuantizeV2"
  input: "transformer/contract/conv3/InstanceNorm/batchnorm/add_1"
  input: "transformer/contract/conv3/Relu_eightbit_min_transformer/contract/conv3/InstanceNorm/batchnorm/add_1"
  input: "transformer/contract/conv3/Relu_eightbit_max_transformer/contract/conv3/InstanceNorm/batchnorm/add_1"
  attr {
    key: "T"
    value {
      type: DT_QUINT8
    }
  }
  attr {
    key: "mode"
    value {
      s: "MIN_FIRST"
    }
  }
}
node {
  name: "transformer/contract/conv3/Relu_eightbit_quantized"
  op: "QuantizedRelu"
  input: "transformer/contract/conv3/Relu_eightbit_quantize_transformer/contract/conv3/InstanceNorm/batchnorm/add_1"
  input: "transformer/contract/conv3/Relu_eightbit_quantize_transformer/contract/conv3/InstanceNorm/batchnorm/add_1:1"
  input: "transformer/contract/conv3/Relu_eightbit_quantize_transformer/contract/conv3/InstanceNorm/batchnorm/add_1:2"
  attr {
    key: "Tinput"
    value {
      type: DT_QUINT8
    }
  }
}
node {
  name: "transformer/contract/conv3/Relu"
  op: "Dequantize"
  input: "transformer/contract/conv3/Relu_eightbit_quantized"
  input: "transformer/contract/conv3/Relu_eightbit_quantized:1"
  input: "transformer/contract/conv3/Relu_eightbit_quantized:2"
  attr {
    key: "T"
    value {
      type: DT_QUINT8
    }
  }
  attr {
    key: "mode"
    value {
      s: "MIN_FIRST"
    }
  }
}
node {
  name: "transformer/residual/residual1/MirrorPad/paddings"
  op: "Const"
  attr {
    key: "dtype"
    value {
      type: DT_INT32
    }
  }
  attr {
    key: "value"
    value {
      tensor {
        dtype: DT_INT32
        tensor_shape {
          dim {
            size: 4
          }
          dim {
            size: 2
          }
        }
        tensor_content: "…"
      }
    }
  }
}
node {
  name: "transformer/residual/residual1/MirrorPad"
  op: "MirrorPad"
  input: "transformer/contract/conv3/Relu"
  input: "transformer/residual/residual1/MirrorPad/paddings"
  attr {
    key: "T"
    value {
      type: DT_FLOAT
    }
  }
  attr {
    key: "Tpaddings"
    value {
      type: DT_INT32
    }
  }
  attr {
    key: "mode"
    value {
      s: "REFLECT"
    }
  }
}
node {
  name: "transformer/residual/residual1/conv1/weights_quint8_const"
  op: "Const"
  attr {
    key: "dtype"
    value {
      type: DT_QUINT8
    }
  }
  attr {
    key: "value"
    value {
      tensor {
        dtype: DT_QUINT8
        tensor_shape {
          dim {
            size: 3
          }
          dim {
            size: 3
          }
          dim {
            size: 32
          }
          dim {
            size: 32
          }
        }
        tensor_content: "…"
      }
    }
  }
}
node {
  name: "transformer/residual/residual1/conv1/weights_min"
  op: "Const"
  attr {
    key: "dtype"
    value {
      type: DT_FLOAT
    }
  }
  attr {
    key: "value"
    value {
      tensor {
        dtype: DT_FLOAT
        tensor_shape {
        }
        float_val: -0.915557324886
      }
    }
  }
}
node {
  name: "transformer/residual/residual1/conv1/weights_max"
  op: "Const"
  attr {
    key: "dtype"
    value {
      type: DT_FLOAT
    }
  }
  attr {
    key: "value"
    value {
      tensor {
        dtype: DT_FLOAT
        tensor_shape {
        }
        float_val: 0.999948263168
      }
    }
  }
}
node {
  name: "transformer/residual/residual1/conv1/convolution_eightbit_reshape_dims"
  op: "Const"
  attr {
    key: "dtype"
    value {
      type: DT_INT32
    }
  }
  attr {
    key: "value"
    value {
      tensor {
        dtype: DT_INT32
        tensor_shape {
          dim {
            size: 1
          }
        }
        int_val: -1
      }
    }
  }
}
node {
  name: "transformer/residual/residual1/conv1/convolution_eightbit_reduction_dims"
  op: "Const"
  attr {
    key: "dtype"
    value {
      type: DT_INT32
    }
  }
  attr {
    key: "value"
    value {
      tensor {
        dtype: DT_INT32
        tensor_shape {
          dim {
            size: 1
          }
        }
        int_val: 0
      }
    }
  }
}
node {
  name: "transformer/residual/residual1/conv1/convolution_eightbit_reshape_transformer/residual/residual1/MirrorPad"
  op: "Reshape"
  input: "transformer/residual/residual1/MirrorPad"
  input: "transformer/residual/residual1/conv1/convolution_eightbit_reshape_dims"
  attr {
    key: "T"
    value {
      type: DT_FLOAT
    }
  }
}
node {
  name: "transformer/residual/residual1/conv1/convolution_eightbit_min_transformer/residual/residual1/MirrorPad"
  op: "Min"
  input: "transformer/residual/residual1/conv1/convolution_eightbit_reshape_transformer/residual/residual1/MirrorPad"
  input: "transformer/residual/residual1/conv1/convolution_eightbit_reduction_dims"
  attr {
    key: "T"
    value {
      type: DT_FLOAT
    }
  }
  attr {
    key: "keep_dims"
    value {
      b: false
    }
  }
}
node {
  name: "transformer/residual/residual1/conv1/convolution_eightbit_max_transformer/residual/residual1/MirrorPad"
  op: "Max"
  input: "transformer/residual/residual1/conv1/convolution_eightbit_reshape_transformer/residual/residual1/MirrorPad"
  input: "transformer/residual/residual1/conv1/convolution_eightbit_reduction_dims"
  attr {
    key: "T"
    value {
      type: DT_FLOAT
    }
  }
  attr {
    key: "keep_dims"
    value {
      b: false
    }
  }
}
node {
  name: "transformer/residual/residual1/conv1/convolution_eightbit_quantize_transformer/residual/residual1/MirrorPad"
  op: "QuantizeV2"
  input: "transformer/residual/residual1/MirrorPad"
  input: "transformer/residual/residual1/conv1/convolution_eightbit_min_transformer/residual/residual1/MirrorPad"
  input: "transformer/residual/residual1/conv1/convolution_eightbit_max_transformer/residual/residual1/MirrorPad"
  attr {
    key: "T"
    value {
      type: DT_QUINT8
    }
  }
  attr {
    key: "mode"
    value {
      s: "MIN_FIRST"
    }
  }
}
node {
  name: "transformer/residual/residual1/conv1/convolution_eightbit_quantized_conv"
  op: "QuantizedConv2D"
  input: "transformer/residual/residual1/conv1/convolution_eightbit_quantize_transformer/residual/residual1/MirrorPad"
  input: "transformer/residual/residual1/conv1/weights_quint8_const"
  input: "transformer/residual/residual1/conv1/convolution_eightbit_quantize_transformer/residual/residual1/MirrorPad:1"
  input: "transformer/residual/residual1/conv1/convolution_eightbit_quantize_transformer/residual/residual1/MirrorPad:2"
  input: "transformer/residual/residual1/conv1/weights_min"
  input: "transformer/residual/residual1/conv1/weights_max"
  attr {
    key: "Tfilter"
    value {
      type: DT_QUINT8
    }
  }
  attr {
    key: "Tinput"
    value {
      type: DT_QUINT8
    }
  }
  attr {
    key: "out_type"
    value {
      type: DT_QINT32
    }
  }
  attr {
    key: "padding"
    value {
      s: "VALID"
    }
  }
  attr {
    key: "strides"
    value {
      list {
        i: 1
        i: 1
        i: 1
        i: 1
      }
    }
  }
}
node {
  name: "transformer/residual/residual1/conv1/convolution_eightbit_requant_range"
  op: "RequantizationRange"
  input: "transformer/residual/residual1/conv1/convolution_eightbit_quantized_conv"
  input: "transformer/residual/residual1/conv1/convolution_eightbit_quantized_conv:1"
  input: "transformer/residual/residual1/conv1/convolution_eightbit_quantized_conv:2"
  attr {
    key: "Tinput"
    value {
      type: DT_QINT32
    }
  }
}
node {
  name: "transformer/residual/residual1/conv1/convolution_eightbit_requantize"
  op: "Requantize"
  input: "transformer/residual/residual1/conv1/convolution_eightbit_quantized_conv"
  input: "transformer/residual/residual1/conv1/convolution_eightbit_quantized_conv:1"
  input: "transformer/residual/residual1/conv1/convolution_eightbit_quantized_conv:2"
  input: "transformer/residual/residual1/conv1/convolution_eightbit_requant_range:0"
  input: "transformer/residual/residual1/conv1/convolution_eightbit_requant_range:1"
  attr {
    key: "Tinput"
    value {
      type: DT_QINT32
    }
  }
  attr {
    key: "out_type"
    value {
      type: DT_QUINT8
    }
  }
}
node {
  name: "transformer/residual/residual1/conv1/convolution"
  op: "Dequantize"
  input: "transformer/residual/residual1/conv1/convolution_eightbit_requantize"
  input: "transformer/residual/residual1/conv1/convolution_eightbit_requantize:1"
  input: "transformer/residual/residual1/conv1/convolution_eightbit_requantize:2"
  attr {
    key: "T"
    value {
      type: DT_QUINT8
    }
  }
  attr {
    key: "mode"
    value {
      s: "MIN_FIRST"
    }
  }
}
node {
  name: "transformer/residual/residual1/conv1/InstanceNorm/moments/sufficient_statistics/Square"
  op: "Square"
  input: "transformer/residual/residual1/conv1/convolution"
  attr {
    key: "T"
    value {
      type: DT_FLOAT
    }
  }
}
node {
  name: "transformer/residual/residual1/conv1/InstanceNorm/moments/sufficient_statistics/var_ss/reduction_indices"
  op: "Const"
  attr {
    key: "dtype"
    value {
      type: DT_INT32
    }
  }
  attr {
    key: "value"
    value {
      tensor {
        dtype: DT_INT32
        tensor_shape {
          dim {
            size: 2
          }
        }
        tensor_content: "\001\000\000\000\002\000\000\000"
      }
    }
  }
}
node {
  name: "transformer/residual/residual1/conv1/InstanceNorm/moments/sufficient_statistics/var_ss"
  op: "Sum"
  input: "transformer/residual/residual1/conv1/InstanceNorm/moments/sufficient_statistics/Square"
  input: "transformer/residual/residual1/conv1/InstanceNorm/moments/sufficient_statistics/var_ss/reduction_indices"
  attr {
    key: "T"
    value {
      type: DT_FLOAT
    }
  }
  attr {
    key: "Tidx"
    value {
      type: DT_INT32
    }
  }
  attr {
    key: "keep_dims"
    value {
      b: true
    }
  }
}
node {
  name: "transformer/residual/residual1/conv1/InstanceNorm/moments/sufficient_statistics/Shape"
  op: "Shape"
  input: "transformer/residual/residual1/conv1/convolution"
  attr {
    key: "T"
    value {
      type: DT_FLOAT
    }
  }
  attr {
    key: "out_type"
    value {
      type: DT_INT32
    }
  }
}
node {
  name: "transformer/residual/residual1/conv1/InstanceNorm/moments/sufficient_statistics/Cast"
  op: "Cast"
  input: "transformer/residual/residual1/conv1/InstanceNorm/moments/sufficient_statistics/Shape"
  attr {
    key: "DstT"
    value {
      type: DT_FLOAT
    }
  }
  attr {
    key: "SrcT"
    value {
      type: DT_INT32
    }
  }
}
node {
  name: "transformer/residual/residual1/conv1/InstanceNorm/moments/sufficient_statistics/Gather/indices"
  op: "Const"
  attr {
    key: "dtype"
    value {
      type: DT_INT32
    }
  }
  attr {
    key: "value"
    value {
      tensor {
        dtype: DT_INT32
        tensor_shape {
          dim {
            size: 2
          }
        }
        tensor_content: "\001\000\000\000\002\000\000\000"
      }
    }
  }
}
node {
  name: "transformer/residual/residual1/conv1/InstanceNorm/moments/sufficient_statistics/Gather"
  op: "Gather"
  input: "transformer/residual/residual1/conv1/InstanceNorm/moments/sufficient_statistics/Cast"
  input: "transformer/residual/residual1/conv1/InstanceNorm/moments/sufficient_statistics/Gather/indices"
  attr {
    key: "Tindices"
    value {
      type: DT_INT32
    }
  }
  attr {
    key: "Tparams"
    value {
      type: DT_FLOAT
    }
  }
  attr {
    key: "validate_indices"
    value {
      b: true
    }
  }
}
node {
  name: "transformer/residual/residual1/conv1/InstanceNorm/moments/sufficient_statistics/Const"
  op: "Const"
  attr {
    key: "dtype"
    value {
      type: DT_INT32
    }
  }
  attr {
    key: "value"
    value {
      tensor {
        dtype: DT_INT32
        tensor_shape {
          dim {
            size: 1
          }
        }
        int_val: 0
      }
    }
  }
}
node {
  name: "transformer/residual/residual1/conv1/InstanceNorm/moments/sufficient_statistics/count"
  op: "Prod"
  input: "transformer/residual/residual1/conv1/InstanceNorm/moments/sufficient_statistics/Gather"
  input: "transformer/residual/residual1/conv1/InstanceNorm/moments/sufficient_statistics/Const"
  attr {
    key: "T"
    value {
      type: DT_FLOAT
    }
  }
  attr {
    key: "Tidx"
    value {
      type: DT_INT32
    }
  }
  attr {
    key: "keep_dims"
    value {
      b: false
    }
  }
}
node {
  name: "transformer/residual/residual1/conv1/InstanceNorm/moments/sufficient_statistics/mean_ss/reduction_indices"
  op: "Const"
  attr {
    key: "dtype"
    value {
      type: DT_INT32
    }
  }
  attr {
    key: "value"
    value {
      tensor {
        dtype: DT_INT32
        tensor_shape {
          dim {
            size: 2
          }
        }
        tensor_content: "\001\000\000\000\002\000\000\000"
      }
    }
  }
}
node {
  name: "transformer/residual/residual1/conv1/InstanceNorm/moments/sufficient_statistics/mean_ss"
  op: "Sum"
  input: "transformer/residual/residual1/conv1/convolution"
  input: "transformer/residual/residual1/conv1/InstanceNorm/moments/sufficient_statistics/mean_ss/reduction_indices"
  attr {
    key: "T"
    value {
      type: DT_FLOAT
    }
  }
  attr {
    key: "Tidx"
    value {
      type: DT_INT32
    }
  }
  attr {
    key: "keep_dims"
    value {
      b: true
    }
  }
}
node {
  name: "transformer/residual/residual1/conv1/InstanceNorm/moments/normalize/divisor"
  op: "Reciprocal"
  input: "transformer/residual/residual1/conv1/InstanceNorm/moments/sufficient_statistics/count"
  input: "^transformer/residual/residual1/conv1/InstanceNorm/moments/sufficient_statistics/mean_ss"
  input: "^transformer/residual/residual1/conv1/InstanceNorm/moments/sufficient_statistics/var_ss"
  attr {
    key: "T"
    value {
      type: DT_FLOAT
    }
  }
}
node {
  name: "transformer/residual/residual1/conv1/InstanceNorm/moments/normalize/Mul"
  op: "Mul"
  input: "transformer/residual/residual1/conv1/InstanceNorm/moments/sufficient_statistics/var_ss"
  input: "transformer/residual/residual1/conv1/InstanceNorm/moments/normalize/divisor"
  attr {
    key: "T"
    value {
      type: DT_FLOAT
    }
  }
}
node {
  name: "transformer/residual/residual1/conv1/InstanceNorm/moments/normalize/mean"
  op: "Mul"
  input: "transformer/residual/residual1/conv1/InstanceNorm/moments/sufficient_statistics/mean_ss"
  input: "transformer/residual/residual1/conv1/InstanceNorm/moments/normalize/divisor"
  attr {
    key: "T"
    value {
      type: DT_FLOAT
    }
  }
}
node {
  name: "transformer/residual/residual1/conv1/InstanceNorm/moments/normalize/Square"
  op: "Square"
  input: "transformer/residual/residual1/conv1/InstanceNorm/moments/normalize/mean"
  attr {
    key: "T"
    value {
      type: DT_FLOAT
    }
  }
}
node {
  name: "transformer/residual/residual1/conv1/InstanceNorm/moments/normalize/variance"
  op: "Sub"
  input: "transformer/residual/residual1/conv1/InstanceNorm/moments/normalize/Mul"
  input: "transformer/residual/residual1/conv1/InstanceNorm/moments/normalize/Square"
  attr {
    key: "T"
    value {
      type: DT_FLOAT
    }
  }
}
node {
  name: "transformer/residual/residual1/conv1/InstanceNorm/batchnorm/add/y"
  op: "Const"
  attr {
    key: "dtype"
    value {
      type: DT_FLOAT
    }
  }
  attr {
    key: "value"
    value {
      tensor {
        dtype: DT_FLOAT
        tensor_shape {
        }
        float_val: 9.99999974738e-06
      }
    }
  }
}
node {
  name: "transformer/residual/residual1/conv1/InstanceNorm/batchnorm/add"
  op: "Add"
  input: "transformer/residual/residual1/conv1/InstanceNorm/moments/normalize/variance"
  input: "transformer/residual/residual1/conv1/InstanceNorm/batchnorm/add/y"
  attr {
    key: "T"
    value {
      type: DT_FLOAT
    }
  }
}
node {
  name: "transformer/residual/residual1/conv1/InstanceNorm/batchnorm/Rsqrt"
  op: "Rsqrt"
  input: "transformer/residual/residual1/conv1/InstanceNorm/batchnorm/add"
  attr {
    key: "T"
    value {
      type: DT_FLOAT
    }
  }
}
node {
  name: "transformer/residual/residual1/conv1/InstanceNorm/Reshape_1/shape"
  op: "Const"
  attr {
    key: "dtype"
    value {
      type: DT_INT32
    }
  }
  attr {
    key: "value"
    value {
      tensor {
        dtype: DT_INT32
        tensor_shape {
          dim {
            size: 2
          }
        }
        tensor_content: "\032\000\000\000\001\000\000\000"
      }
    }
  }
}
node {
  name: "transformer/residual/residual1/conv1/InstanceNorm/Reshape_1_eightbit_reshape_dims"
  op: "Const"
  attr {
    key: "dtype"
    value {
      type: DT_INT32
    }
  }
  attr {
    key: "value"
    value {
      tensor {
        dtype: DT_INT32
        tensor_shape {
          dim {
            size: 1
          }
        }
        int_val: -1
      }
    }
  }
}
node {
  name: "transformer/residual/residual1/conv1/InstanceNorm/Reshape_1_eightbit_reduction_dims"
  op: "Const"
  attr {
    key: "dtype"
    value {
      type: DT_INT32
    }
  }
  attr {
    key: "value"
    value {
      tensor {
        dtype: DT_INT32
        tensor_shape {
          dim {
            size: 1
          }
        }
        int_val: 0
      }
    }
  }
}
node {
  name: "transformer/residual/residual1/conv1/InstanceNorm/Reshape_1_eightbit_reshape_style_num"
  op: "Reshape"
  input: "style_num"
  input: "transformer/residual/residual1/conv1/InstanceNorm/Reshape_1_eightbit_reshape_dims"
  attr {
    key: "T"
    value {
      type: DT_FLOAT
    }
  }
}
node {
  name: "transformer/residual/residual1/conv1/InstanceNorm/Reshape_1_eightbit_min_style_num"
  op: "Min"
  input: "transformer/residual/residual1/conv1/InstanceNorm/Reshape_1_eightbit_reshape_style_num"
  input: "transformer/residual/residual1/conv1/InstanceNorm/Reshape_1_eightbit_reduction_dims"
  attr {
    key: "T"
    value {
      type: DT_FLOAT
    }
  }
  attr {
    key: "keep_dims"
    value {
      b: false
    }
  }
}
node {
  name: "transformer/residual/residual1/conv1/InstanceNorm/Reshape_1_eightbit_max_style_num"
  op: "Max"
  input: "transformer/residual/residual1/conv1/InstanceNorm/Reshape_1_eightbit_reshape_style_num"
  input: "transformer/residual/residual1/conv1/InstanceNorm/Reshape_1_eightbit_reduction_dims"
  attr {
    key: "T"
    value {
      type: DT_FLOAT
    }
  }
  attr {
    key: "keep_dims"
    value {
      b: false
    }
  }
}
node {
  name: "transformer/residual/residual1/conv1/InstanceNorm/Reshape_1_eightbit_quantize_style_num"
  op: "QuantizeV2"
  input: "style_num"
  input: "transformer/residual/residual1/conv1/InstanceNorm/Reshape_1_eightbit_min_style_num"
  input: "transformer/residual/residual1/conv1/InstanceNorm/Reshape_1_eightbit_max_style_num"
  attr {
    key: "T"
    value {
      type: DT_QUINT8
    }
  }
  attr {
    key: "mode"
    value {
      s: "MIN_FIRST"
    }
  }
}
node {
  name: "transformer/residual/residual1/conv1/InstanceNorm/Reshape_1_eightbit_quantized_reshape"
  op: "QuantizedReshape"
  input: "transformer/residual/residual1/conv1/InstanceNorm/Reshape_1_eightbit_quantize_style_num"
  input: "transformer/residual/residual1/conv1/InstanceNorm/Reshape_1/shape"
  input: "transformer/residual/residual1/conv1/InstanceNorm/Reshape_1_eightbit_quantize_style_num:1"
  input: "transformer/residual/residual1/conv1/InstanceNorm/Reshape_1_eightbit_quantize_style_num:2"
  attr {
    key: "T"
    value {
      type: DT_QUINT8
    }
  }
}
node {
  name: "transformer/residual/residual1/conv1/InstanceNorm/Reshape_1"
  op: "Dequantize"
  input: "transformer/residual/residual1/conv1/InstanceNorm/Reshape_1_eightbit_quantized_reshape"
  input: "transformer/residual/residual1/conv1/InstanceNorm/Reshape_1_eightbit_quantized_reshape:1"
  input: "transformer/residual/residual1/conv1/InstanceNorm/Reshape_1_eightbit_quantized_reshape:2"
  attr {
    key: "T"
    value {
      type: DT_QUINT8
    }
  }
  attr {
    key: "mode"
    value {
      s: "MIN_FIRST"
    }
  }
}
node {
  name: "transformer/residual/residual1/conv1/InstanceNorm/gamma"
  op: "Const"
  attr {
    key: "dtype"
    value {
      type: DT_FLOAT
    }
  }
  attr {
    key: "value"
    value {
      tensor {
        dtype: DT_FLOAT
        tensor_shape {
          dim {
            size: 26
          }
          dim {
            size: 32
          }
        }
        tensor_content: "…"
      }
    }
  }
}
node {
  name: "transformer/residual/residual1/conv1/InstanceNorm/mul_1"
  op: "Mul"
  input: "transformer/residual/residual1/conv1/InstanceNorm/Reshape_1"
  input: "transformer/residual/residual1/conv1/InstanceNorm/gamma"
  attr {
    key: "T"
    value {
      type: DT_FLOAT
    }
  }
}
node {
  name: "transformer/residual/residual1/conv1/InstanceNorm/Sum_1/reduction_indices"
  op: "Const"
  attr {
    key: "dtype"
    value {
      type: DT_INT32
    }
  }
  attr {
    key: "value"
    value {
      tensor {
        dtype: DT_INT32
        tensor_shape {
        }
        int_val: 0
      }
    }
  }
}
node {
  name: "transformer/residual/residual1/conv1/InstanceNorm/Sum_1"
  op: "Sum"
  input: "transformer/residual/residual1/conv1/InstanceNorm/mul_1"
  input: "transformer/residual/residual1/conv1/InstanceNorm/Sum_1/reduction_indices"
  attr {
    key: "T"
    value {
      type: DT_FLOAT
    }
  }
  attr {
    key: "Tidx"
    value {
      type: DT_INT32
    }
  }
  attr {
    key: "keep_dims"
    value {
      b: true
    }
  }
}
node {
  name: "transformer/residual/residual1/conv1/InstanceNorm/ExpandDims_2/dim"
  op: "Const"
  attr {
    key: "dtype"
    value {
      type: DT_INT32
    }
  }
  attr {
    key: "value"
    value {
      tensor {
        dtype: DT_INT32
        tensor_shape {
        }
        int_val: 1
      }
    }
  }
}
node {
  name: "transformer/residual/residual1/conv1/InstanceNorm/ExpandDims_2"
  op: "ExpandDims"
  input: "transformer/residual/residual1/conv1/InstanceNorm/Sum_1"
  input: "transformer/residual/residual1/conv1/InstanceNorm/ExpandDims_2/dim"
  attr {
    key: "T"
    value {
      type: DT_FLOAT
    }
  }
  attr {
    key: "Tdim"
    value {
      type: DT_INT32
    }
  }
}
node {
  name: "transformer/residual/residual1/conv1/InstanceNorm/ExpandDims_3/dim"
  op: "Const"
  attr {
    key: "dtype"
    value {
      type: DT_INT32
    }
  }
  attr {
    key: "value"
    value {
      tensor {
        dtype: DT_INT32
        tensor_shape {
        }
        int_val: 1
      }
    }
  }
}
node {
  name: "transformer/residual/residual1/conv1/InstanceNorm/ExpandDims_3"
  op: "ExpandDims"
  input: "transformer/residual/residual1/conv1/InstanceNorm/ExpandDims_2"
  input: "transformer/residual/residual1/conv1/InstanceNorm/ExpandDims_3/dim"
  attr {
    key: "T"
    value {
      type: DT_FLOAT
    }
  }
  attr {
    key: "Tdim"
    value {
      type: DT_INT32
    }
  }
}
node {
  name: "transformer/residual/residual1/conv1/InstanceNorm/batchnorm/mul"
  op: "Mul"
  input: "transformer/residual/residual1/conv1/InstanceNorm/batchnorm/Rsqrt"
  input: "transformer/residual/residual1/conv1/InstanceNorm/ExpandDims_3"
  attr {
    key: "T"
    value {
      type: DT_FLOAT
    }
  }
}
node {
  name: "transformer/residual/residual1/conv1/InstanceNorm/batchnorm/mul_1"
  op: "Mul"
  input: "transformer/residual/residual1/conv1/convolution"
  input: "transformer/residual/residual1/conv1/InstanceNorm/batchnorm/mul"
  attr {
    key: "T"
    value {
      type: DT_FLOAT
    }
  }
}
node {
  name: "transformer/residual/residual1/conv1/InstanceNorm/Reshape/shape"
  op: "Const"
  attr {
    key: "dtype"
    value {
      type: DT_INT32
    }
  }
  attr {
    key: "value"
    value {
      tensor {
        dtype: DT_INT32
        tensor_shape {
          dim {
            size: 2
          }
        }
        tensor_content: "\032\000\000\000\001\000\000\000"
      }
    }
  }
}
node {
  name: "transformer/residual/residual1/conv1/InstanceNorm/Reshape_eightbit_reshape_dims"
  op: "Const"
  attr {
    key: "dtype"
    value {
      type: DT_INT32
    }
  }
  attr {
    key: "value"
    value {
      tensor {
        dtype: DT_INT32
        tensor_shape {
          dim {
            size: 1
          }
        }
        int_val: -1
      }
    }
  }
}
node {
  name: "transformer/residual/residual1/conv1/InstanceNorm/Reshape_eightbit_reduction_dims"
  op: "Const"
  attr {
    key: "dtype"
    value {
      type: DT_INT32
    }
  }
  attr {
    key: "value"
    value {
      tensor {
        dtype: DT_INT32
        tensor_shape {
          dim {
            size: 1
          }
        }
        int_val: 0
      }
    }
  }
}
node {
  name: "transformer/residual/residual1/conv1/InstanceNorm/Reshape_eightbit_reshape_style_num"
  op: "Reshape"
  input: "style_num"
  input: "transformer/residual/residual1/conv1/InstanceNorm/Reshape_eightbit_reshape_dims"
  attr {
    key: "T"
    value {
      type: DT_FLOAT
    }
  }
}
node {
  name: "transformer/residual/residual1/conv1/InstanceNorm/Reshape_eightbit_min_style_num"
  op: "Min"
  input: "transformer/residual/residual1/conv1/InstanceNorm/Reshape_eightbit_reshape_style_num"
  input: "transformer/residual/residual1/conv1/InstanceNorm/Reshape_eightbit_reduction_dims"
  attr {
    key: "T"
    value {
      type: DT_FLOAT
    }
  }
  attr {
    key: "keep_dims"
    value {
      b: false
    }
  }
}
node {
  name: "transformer/residual/residual1/conv1/InstanceNorm/Reshape_eightbit_max_style_num"
  op: "Max"
  input: "transformer/residual/residual1/conv1/InstanceNorm/Reshape_eightbit_reshape_style_num"
  input: "transformer/residual/residual1/conv1/InstanceNorm/Reshape_eightbit_reduction_dims"
  attr {
    key: "T"
    value {
      type: DT_FLOAT
    }
  }
  attr {
    key: "keep_dims"
    value {
      b: false
    }
  }
}
node {
  name: "transformer/residual/residual1/conv1/InstanceNorm/Reshape_eightbit_quantize_style_num"
  op: "QuantizeV2"
  input: "style_num"
  input: "transformer/residual/residual1/conv1/InstanceNorm/Reshape_eightbit_min_style_num"
  input: "transformer/residual/residual1/conv1/InstanceNorm/Reshape_eightbit_max_style_num"
  attr {
    key: "T"
    value {
      type: DT_QUINT8
    }
  }
  attr {
    key: "mode"
    value {
      s: "MIN_FIRST"
    }
  }
}
node {
  name: "transformer/residual/residual1/conv1/InstanceNorm/Reshape_eightbit_quantized_reshape"
  op: "QuantizedReshape"
  input: "transformer/residual/residual1/conv1/InstanceNorm/Reshape_eightbit_quantize_style_num"
  input: "transformer/residual/residual1/conv1/InstanceNorm/Reshape/shape"
  input: "transformer/residual/residual1/conv1/InstanceNorm/Reshape_eightbit_quantize_style_num:1"
  input: "transformer/residual/residual1/conv1/InstanceNorm/Reshape_eightbit_quantize_style_num:2"
  attr {
    key: "T"
    value {
      type: DT_QUINT8
    }
  }
}
node {
  name: "transformer/residual/residual1/conv1/InstanceNorm/Reshape"
  op: "Dequantize"
  input: "transformer/residual/residual1/conv1/InstanceNorm/Reshape_eightbit_quantized_reshape"
  input: "transformer/residual/residual1/conv1/InstanceNorm/Reshape_eightbit_quantized_reshape:1"
  input: "transformer/residual/residual1/conv1/InstanceNorm/Reshape_eightbit_quantized_reshape:2"
  attr {
    key: "T"
    value {
      type: DT_QUINT8
    }
  }
  attr {
    key: "mode"
    value {
      s: "MIN_FIRST"
    }
  }
}
node {
  name: "transformer/residual/residual1/conv1/InstanceNorm/beta"
  op: "Const"
  attr {
    key: "dtype"
    value {
      type: DT_FLOAT
    }
  }
  attr {
    key: "value"
    value {
      tensor {
        dtype: DT_FLOAT
        tensor_shape {
          dim {
            size: 26
          }
          dim {
            size: 32
          }
        }
        tensor_content: "…"
      }
    }
  }
}
node {
  name: "transformer/residual/residual1/conv1/InstanceNorm/mul"
  op: "Mul"
  input: "transformer/residual/residual1/conv1/InstanceNorm/Reshape"
  input: "transformer/residual/residual1/conv1/InstanceNorm/beta"
  attr {
    key: "T"
    value {
      type: DT_FLOAT
    }
  }
}
node {
  name: "transformer/residual/residual1/conv1/InstanceNorm/Sum/reduction_indices"
  op: "Const"
  attr {
    key: "dtype"
    value {
      type: DT_INT32
    }
  }
  attr {
    key: "value"
    value {
      tensor {
        dtype: DT_INT32
        tensor_shape {
        }
        int_val: 0
      }
    }
  }
}
node {
  name: "transformer/residual/residual1/conv1/InstanceNorm/Sum"
  op: "Sum"
  input: "transformer/residual/residual1/conv1/InstanceNorm/mul"
  input: "transformer/residual/residual1/conv1/InstanceNorm/Sum/reduction_indices"
  attr {
    key: "T"
    value {
      type: DT_FLOAT
    }
  }
  attr {
    key: "Tidx"
    value {
      type: DT_INT32
    }
  }
  attr {
    key: "keep_dims"
    value {
      b: true
    }
  }
}
node {
  name: "transformer/residual/residual1/conv1/InstanceNorm/ExpandDims/dim"
  op: "Const"
  attr {
    key: "dtype"
    value {
      type: DT_INT32
    }
  }
  attr {
    key: "value"
    value {
      tensor {
        dtype: DT_INT32
        tensor_shape {
        }
        int_val: 1
      }
    }
  }
}
node {
  name: "transformer/residual/residual1/conv1/InstanceNorm/ExpandDims"
  op: "ExpandDims"
  input: "transformer/residual/residual1/conv1/InstanceNorm/Sum"
  input: "transformer/residual/residual1/conv1/InstanceNorm/ExpandDims/dim"
  attr {
    key: "T"
    value {
      type: DT_FLOAT
    }
  }
  attr {
    key: "Tdim"
    value {
      type: DT_INT32
    }
  }
}
node {
  name: "transformer/residual/residual1/conv1/InstanceNorm/ExpandDims_1/dim"
  op: "Const"
  attr {
    key: "dtype"
    value {
      type: DT_INT32
    }
  }
  attr {
    key: "value"
    value {
      tensor {
        dtype: DT_INT32
        tensor_shape {
        }
        int_val: 1
      }
    }
  }
}
node {
  name: "transformer/residual/residual1/conv1/InstanceNorm/ExpandDims_1"
  op: "ExpandDims"
  input: "transformer/residual/residual1/conv1/InstanceNorm/ExpandDims"
  input: "transformer/residual/residual1/conv1/InstanceNorm/ExpandDims_1/dim"
  attr {
    key: "T"
    value {
      type: DT_FLOAT
    }
  }
  attr {
    key: "Tdim"
    value {
      type: DT_INT32
    }
  }
}
node {
  name: "transformer/residual/residual1/conv1/InstanceNorm/batchnorm/mul_2"
  op: "Mul"
  input: "transformer/residual/residual1/conv1/InstanceNorm/moments/normalize/mean"
  input: "transformer/residual/residual1/conv1/InstanceNorm/batchnorm/mul"
  attr {
    key: "T"
    value {
      type: DT_FLOAT
    }
  }
}
node {
  name: "transformer/residual/residual1/conv1/InstanceNorm/batchnorm/sub"
  op: "Sub"
  input: "transformer/residual/residual1/conv1/InstanceNorm/ExpandDims_1"
  input: "transformer/residual/residual1/conv1/InstanceNorm/batchnorm/mul_2"
  attr {
    key: "T"
    value {
      type: DT_FLOAT
    }
  }
}
node {
  name: "transformer/residual/residual1/conv1/InstanceNorm/batchnorm/add_1"
  op: "Add"
  input: "transformer/residual/residual1/conv1/InstanceNorm/batchnorm/mul_1"
  input: "transformer/residual/residual1/conv1/InstanceNorm/batchnorm/sub"
  attr {
    key: "T"
    value {
      type: DT_FLOAT
    }
  }
}
node {
  name: "transformer/residual/residual1/conv1/Relu_eightbit_reshape_dims"
  op: "Const"
  attr {
    key: "dtype"
    value {
      type: DT_INT32
    }
  }
  attr {
    key: "value"
    value {
      tensor {
        dtype: DT_INT32
        tensor_shape {
          dim {
            size: 1
          }
        }
        int_val: -1
      }
    }
  }
}
node {
  name: "transformer/residual/residual1/conv1/Relu_eightbit_reduction_dims"
  op: "Const"
  attr {
    key: "dtype"
    value {
      type: DT_INT32
    }
  }
  attr {
    key: "value"
    value {
      tensor {
        dtype: DT_INT32
        tensor_shape {
          dim {
            size: 1
          }
        }
        int_val: 0
      }
    }
  }
}
node {
  name: "transformer/residual/residual1/conv1/Relu_eightbit_reshape_transformer/residual/residual1/conv1/InstanceNorm/batchnorm/add_1"
  op: "Reshape"
  input: "transformer/residual/residual1/conv1/InstanceNorm/batchnorm/add_1"
  input: "transformer/residual/residual1/conv1/Relu_eightbit_reshape_dims"
  attr {
    key: "T"
    value {
      type: DT_FLOAT
    }
  }
}
node {
  name: "transformer/residual/residual1/conv1/Relu_eightbit_min_transformer/residual/residual1/conv1/InstanceNorm/batchnorm/add_1"
  op: "Min"
  input: "transformer/residual/residual1/conv1/Relu_eightbit_reshape_transformer/residual/residual1/conv1/InstanceNorm/batchnorm/add_1"
  input: "transformer/residual/residual1/conv1/Relu_eightbit_reduction_dims"
  attr {
    key: "T"
    value {
      type: DT_FLOAT
    }
  }
  attr {
    key: "keep_dims"
    value {
      b: false
    }
  }
}
node {
  name: "transformer/residual/residual1/conv1/Relu_eightbit_max_transformer/residual/residual1/conv1/InstanceNorm/batchnorm/add_1"
  op: "Max"
  input: "transformer/residual/residual1/conv1/Relu_eightbit_reshape_transformer/residual/residual1/conv1/InstanceNorm/batchnorm/add_1"
  input: "transformer/residual/residual1/conv1/Relu_eightbit_reduction_dims"
  attr {
    key: "T"
    value {
      type: DT_FLOAT
    }
  }
  attr {
    key: "keep_dims"
    value {
      b: false
    }
  }
}
node {
  name: "transformer/residual/residual1/conv1/Relu_eightbit_quantize_transformer/residual/residual1/conv1/InstanceNorm/batchnorm/add_1"
  op: "QuantizeV2"
  input: "transformer/residual/residual1/conv1/InstanceNorm/batchnorm/add_1"
  input: "transformer/residual/residual1/conv1/Relu_eightbit_min_transformer/residual/residual1/conv1/InstanceNorm/batchnorm/add_1"
  input: "transformer/residual/residual1/conv1/Relu_eightbit_max_transformer/residual/residual1/conv1/InstanceNorm/batchnorm/add_1"
  attr {
    key: "T"
    value {
      type: DT_QUINT8
    }
  }
  attr {
    key: "mode"
    value {
      s: "MIN_FIRST"
    }
  }
}
node {
  name: "transformer/residual/residual1/conv1/Relu_eightbit_quantized"
  op: "QuantizedRelu"
  input: "transformer/residual/residual1/conv1/Relu_eightbit_quantize_transformer/residual/residual1/conv1/InstanceNorm/batchnorm/add_1"
  input: "transformer/residual/residual1/conv1/Relu_eightbit_quantize_transformer/residual/residual1/conv1/InstanceNorm/batchnorm/add_1:1"
  input: "transformer/residual/residual1/conv1/Relu_eightbit_quantize_transformer/residual/residual1/conv1/InstanceNorm/batchnorm/add_1:2"
  attr {
    key: "Tinput"
    value {
      type: DT_QUINT8
    }
  }
}
node {
  name: "transformer/residual/residual1/conv1/Relu"
  op: "Dequantize"
  input: "transformer/residual/residual1/conv1/Relu_eightbit_quantized"
  input: "transformer/residual/residual1/conv1/Relu_eightbit_quantized:1"
  input: "transformer/residual/residual1/conv1/Relu_eightbit_quantized:2"
  attr {
    key: "T"
    value {
      type: DT_QUINT8
    }
  }
  attr {
    key: "mode"
    value {
      s: "MIN_FIRST"
    }
  }
}
node {
  name: "transformer/residual/residual1/MirrorPad_1/paddings"
  op: "Const"
  attr {
    key: "dtype"
    value {
      type: DT_INT32
    }
  }
  attr {
    key: "value"
    value {
      tensor {
        dtype: DT_INT32
        tensor_shape {
          dim {
            size: 4
          }
          dim {
            size: 2
          }
        }
        tensor_content: "…"
      }
    }
  }
}
node {
  name: "transformer/residual/residual1/MirrorPad_1"
  op: "MirrorPad"
  input: "transformer/residual/residual1/conv1/Relu"
  input: "transformer/residual/residual1/MirrorPad_1/paddings"
  attr {
    key: "T"
    value {
      type: DT_FLOAT
    }
  }
  attr {
    key: "Tpaddings"
    value {
      type: DT_INT32
    }
  }
  attr {
    key: "mode"
    value {
      s: "REFLECT"
    }
  }
}
node {
  name: "transformer/residual/residual1/conv2/weights_quint8_const"
  op: "Const"
  attr {
    key: "dtype"
    value {
      type: DT_QUINT8
    }
  }
  attr {
    key: "value"
    value {
      tensor {
        dtype: DT_QUINT8
        tensor_shape {
          dim {
            size: 3
          }
          dim {
            size: 3
          }
          dim {
            size: 32
          }
          dim {
            size: 32
          }
        }
        tensor_content: "…"
      }
    }
  }
}
node {
  name: "transformer/residual/residual1/conv2/weights_min"
  op: "Const"
  attr {
    key: "dtype"
    value {
      type: DT_FLOAT
    }
  }
  attr {
    key: "value"
    value {
      tensor {
        dtype: DT_FLOAT
        tensor_shape {
        }
        float_val: -1.06091439724
      }
    }
  }
}
node {
  name: "transformer/residual/residual1/conv2/weights_max"
  op: "Const"
  attr {
    key: "dtype"
    value {
      type: DT_FLOAT
    }
  }
  attr {
    key: "value"
    value {
      tensor {
        dtype: DT_FLOAT
        tensor_shape {
        }
        float_val: 1.19617950916
      }
    }
  }
}
node {
  name: "transformer/residual/residual1/conv2/convolution_eightbit_reshape_dims"
  op: "Const"
  attr {
    key: "dtype"
    value {
      type: DT_INT32
    }
  }
  attr {
    key: "value"
    value {
      tensor {
        dtype: DT_INT32
        tensor_shape {
          dim {
            size: 1
          }
        }
        int_val: -1
      }
    }
  }
}
node {
  name: "transformer/residual/residual1/conv2/convolution_eightbit_reduction_dims"
  op: "Const"
  attr {
    key: "dtype"
    value {
      type: DT_INT32
    }
  }
  attr {
    key: "value"
    value {
      tensor {
        dtype: DT_INT32
        tensor_shape {
          dim {
            size: 1
          }
        }
        int_val: 0
      }
    }
  }
}
node {
  name: "transformer/residual/residual1/conv2/convolution_eightbit_reshape_transformer/residual/residual1/MirrorPad_1"
  op: "Reshape"
  input: "transformer/residual/residual1/MirrorPad_1"
  input: "transformer/residual/residual1/conv2/convolution_eightbit_reshape_dims"
  attr {
    key: "T"
    value {
      type: DT_FLOAT
    }
  }
}
node {
  name: "transformer/residual/residual1/conv2/convolution_eightbit_min_transformer/residual/residual1/MirrorPad_1"
  op: "Min"
  input: "transformer/residual/residual1/conv2/convolution_eightbit_reshape_transformer/residual/residual1/MirrorPad_1"
  input: "transformer/residual/residual1/conv2/convolution_eightbit_reduction_dims"
  attr {
    key: "T"
    value {
      type: DT_FLOAT
    }
  }
  attr {
    key: "keep_dims"
    value {
      b: false
    }
  }
}
node {
  name: "transformer/residual/residual1/conv2/convolution_eightbit_max_transformer/residual/residual1/MirrorPad_1"
  op: "Max"
  input: "transformer/residual/residual1/conv2/convolution_eightbit_reshape_transformer/residual/residual1/MirrorPad_1"
  input: "transformer/residual/residual1/conv2/convolution_eightbit_reduction_dims"
  attr {
    key: "T"
    value {
      type: DT_FLOAT
    }
  }
  attr {
    key: "keep_dims"
    value {
      b: false
    }
  }
}
node {
  name: "transformer/residual/residual1/conv2/convolution_eightbit_quantize_transformer/residual/residual1/MirrorPad_1"
  op: "QuantizeV2"
  input: "transformer/residual/residual1/MirrorPad_1"
  input: "transformer/residual/residual1/conv2/convolution_eightbit_min_transformer/residual/residual1/MirrorPad_1"
  input: "transformer/residual/residual1/conv2/convolution_eightbit_max_transformer/residual/residual1/MirrorPad_1"
  attr {
    key: "T"
    value {
      type: DT_QUINT8
    }
  }
  attr {
    key: "mode"
    value {
      s: "MIN_FIRST"
    }
  }
}
node {
  name: "transformer/residual/residual1/conv2/convolution_eightbit_quantized_conv"
  op: "QuantizedConv2D"
  input: "transformer/residual/residual1/conv2/convolution_eightbit_quantize_transformer/residual/residual1/MirrorPad_1"
  input: "transformer/residual/residual1/conv2/weights_quint8_const"
  input: "transformer/residual/residual1/conv2/convolution_eightbit_quantize_transformer/residual/residual1/MirrorPad_1:1"
  input: "transformer/residual/residual1/conv2/convolution_eightbit_quantize_transformer/residual/residual1/MirrorPad_1:2"
  input: "transformer/residual/residual1/conv2/weights_min"
  input: "transformer/residual/residual1/conv2/weights_max"
  attr {
    key: "Tfilter"
    value {
      type: DT_QUINT8
    }
  }
  attr {
    key: "Tinput"
    value {
      type: DT_QUINT8
    }
  }
  attr {
    key: "out_type"
    value {
      type: DT_QINT32
    }
  }
  attr {
    key: "padding"
    value {
      s: "VALID"
    }
  }
  attr {
    key: "strides"
    value {
      list {
        i: 1
        i: 1
        i: 1
        i: 1
      }
    }
  }
}
node {
  name: "transformer/residual/residual1/conv2/convolution_eightbit_requant_range"
  op: "RequantizationRange"
  input: "transformer/residual/residual1/conv2/convolution_eightbit_quantized_conv"
  input: "transformer/residual/residual1/conv2/convolution_eightbit_quantized_conv:1"
  input: "transformer/residual/residual1/conv2/convolution_eightbit_quantized_conv:2"
  attr {
    key: "Tinput"
    value {
      type: DT_QINT32
    }
  }
}
node {
  name: "transformer/residual/residual1/conv2/convolution_eightbit_requantize"
  op: "Requantize"
  input: "transformer/residual/residual1/conv2/convolution_eightbit_quantized_conv"
  input: "transformer/residual/residual1/conv2/convolution_eightbit_quantized_conv:1"
  input: "transformer/residual/residual1/conv2/convolution_eightbit_quantized_conv:2"
  input: "transformer/residual/residual1/conv2/convolution_eightbit_requant_range:0"
  input: "transformer/residual/residual1/conv2/convolution_eightbit_requant_range:1"
  attr {
    key: "Tinput"
    value {
      type: DT_QINT32
    }
  }
  attr {
    key: "out_type"
    value {
      type: DT_QUINT8
    }
  }
}
node {
  name: "transformer/residual/residual1/conv2/convolution"
  op: "Dequantize"
  input: "transformer/residual/residual1/conv2/convolution_eightbit_requantize"
  input: "transformer/residual/residual1/conv2/convolution_eightbit_requantize:1"
  input: "transformer/residual/residual1/conv2/convolution_eightbit_requantize:2"
  attr {
    key: "T"
    value {
      type: DT_QUINT8
    }
  }
  attr {
    key: "mode"
    value {
      s: "MIN_FIRST"
    }
  }
}
node {
  name: "transformer/residual/residual1/conv2/InstanceNorm/moments/sufficient_statistics/Square"
  op: "Square"
  input: "transformer/residual/residual1/conv2/convolution"
  attr {
    key: "T"
    value {
      type: DT_FLOAT
    }
  }
}
node {
  name: "transformer/residual/residual1/conv2/InstanceNorm/moments/sufficient_statistics/var_ss/reduction_indices"
  op: "Const"
  attr {
    key: "dtype"
    value {
      type: DT_INT32
    }
  }
  attr {
    key: "value"
    value {
      tensor {
        dtype: DT_INT32
        tensor_shape {
          dim {
            size: 2
          }
        }
        tensor_content: "\001\000\000\000\002\000\000\000"
      }
    }
  }
}
node {
  name: "transformer/residual/residual1/conv2/InstanceNorm/moments/sufficient_statistics/var_ss"
  op: "Sum"
  input: "transformer/residual/residual1/conv2/InstanceNorm/moments/sufficient_statistics/Square"
  input: "transformer/residual/residual1/conv2/InstanceNorm/moments/sufficient_statistics/var_ss/reduction_indices"
  attr {
    key: "T"
    value {
      type: DT_FLOAT
    }
  }
  attr {
    key: "Tidx"
    value {
      type: DT_INT32
    }
  }
  attr {
    key: "keep_dims"
    value {
      b: true
    }
  }
}
node {
  name: "transformer/residual/residual1/conv2/InstanceNorm/moments/sufficient_statistics/Shape"
  op: "Shape"
  input: "transformer/residual/residual1/conv2/convolution"
  attr {
    key: "T"
    value {
      type: DT_FLOAT
    }
  }
  attr {
    key: "out_type"
    value {
      type: DT_INT32
    }
  }
}
node {
  name: "transformer/residual/residual1/conv2/InstanceNorm/moments/sufficient_statistics/Cast"
  op: "Cast"
  input: "transformer/residual/residual1/conv2/InstanceNorm/moments/sufficient_statistics/Shape"
  attr {
    key: "DstT"
    value {
      type: DT_FLOAT
    }
  }
  attr {
    key: "SrcT"
    value {
      type: DT_INT32
    }
  }
}
node {
  name: "transformer/residual/residual1/conv2/InstanceNorm/moments/sufficient_statistics/Gather/indices"
  op: "Const"
  attr {
    key: "dtype"
    value {
      type: DT_INT32
    }
  }
  attr {
    key: "value"
    value {
      tensor {
        dtype: DT_INT32
        tensor_shape {
          dim {
            size: 2
          }
        }
        tensor_content: "\001\000\000\000\002\000\000\000"
      }
    }
  }
}
node {
  name: "transformer/residual/residual1/conv2/InstanceNorm/moments/sufficient_statistics/Gather"
  op: "Gather"
  input: "transformer/residual/residual1/conv2/InstanceNorm/moments/sufficient_statistics/Cast"
  input: "transformer/residual/residual1/conv2/InstanceNorm/moments/sufficient_statistics/Gather/indices"
  attr {
    key: "Tindices"
    value {
      type: DT_INT32
    }
  }
  attr {
    key: "Tparams"
    value {
      type: DT_FLOAT
    }
  }
  attr {
    key: "validate_indices"
    value {
      b: true
    }
  }
}
node {
  name: "transformer/residual/residual1/conv2/InstanceNorm/moments/sufficient_statistics/Const"
  op: "Const"
  attr {
    key: "dtype"
    value {
      type: DT_INT32
    }
  }
  attr {
    key: "value"
    value {
      tensor {
        dtype: DT_INT32
        tensor_shape {
          dim {
            size: 1
          }
        }
        int_val: 0
      }
    }
  }
}
node {
  name: "transformer/residual/residual1/conv2/InstanceNorm/moments/sufficient_statistics/count"
  op: "Prod"
  input: "transformer/residual/residual1/conv2/InstanceNorm/moments/sufficient_statistics/Gather"
  input: "transformer/residual/residual1/conv2/InstanceNorm/moments/sufficient_statistics/Const"
  attr {
    key: "T"
    value {
      type: DT_FLOAT
    }
  }
  attr {
    key: "Tidx"
    value {
      type: DT_INT32
    }
  }
  attr {
    key: "keep_dims"
    value {
      b: false
    }
  }
}
node {
  name: "transformer/residual/residual1/conv2/InstanceNorm/moments/sufficient_statistics/mean_ss/reduction_indices"
  op: "Const"
  attr {
    key: "dtype"
    value {
      type: DT_INT32
    }
  }
  attr {
    key: "value"
    value {
      tensor {
        dtype: DT_INT32
        tensor_shape {
          dim {
            size: 2
          }
        }
        tensor_content: "\001\000\000\000\002\000\000\000"
      }
    }
  }
}
node {
  name: "transformer/residual/residual1/conv2/InstanceNorm/moments/sufficient_statistics/mean_ss"
  op: "Sum"
  input: "transformer/residual/residual1/conv2/convolution"
  input: "transformer/residual/residual1/conv2/InstanceNorm/moments/sufficient_statistics/mean_ss/reduction_indices"
  attr {
    key: "T"
    value {
      type: DT_FLOAT
    }
  }
  attr {
    key: "Tidx"
    value {
      type: DT_INT32
    }
  }
  attr {
    key: "keep_dims"
    value {
      b: true
    }
  }
}
node {
  name: "transformer/residual/residual1/conv2/InstanceNorm/moments/normalize/divisor"
  op: "Reciprocal"
  input: "transformer/residual/residual1/conv2/InstanceNorm/moments/sufficient_statistics/count"
  input: "^transformer/residual/residual1/conv2/InstanceNorm/moments/sufficient_statistics/mean_ss"
  input: "^transformer/residual/residual1/conv2/InstanceNorm/moments/sufficient_statistics/var_ss"
  attr {
    key: "T"
    value {
      type: DT_FLOAT
    }
  }
}
node {
  name: "transformer/residual/residual1/conv2/InstanceNorm/moments/normalize/Mul"
  op: "Mul"
  input: "transformer/residual/residual1/conv2/InstanceNorm/moments/sufficient_statistics/var_ss"
  input: "transformer/residual/residual1/conv2/InstanceNorm/moments/normalize/divisor"
  attr {
    key: "T"
    value {
      type: DT_FLOAT
    }
  }
}
node {
  name: "transformer/residual/residual1/conv2/InstanceNorm/moments/normalize/mean"
  op: "Mul"
  input: "transformer/residual/residual1/conv2/InstanceNorm/moments/sufficient_statistics/mean_ss"
  input: "transformer/residual/residual1/conv2/InstanceNorm/moments/normalize/divisor"
  attr {
    key: "T"
    value {
      type: DT_FLOAT
    }
  }
}
node {
  name: "transformer/residual/residual1/conv2/InstanceNorm/moments/normalize/Square"
  op: "Square"
  input: "transformer/residual/residual1/conv2/InstanceNorm/moments/normalize/mean"
  attr {
    key: "T"
    value {
      type: DT_FLOAT
    }
  }
}
node {
  name: "transformer/residual/residual1/conv2/InstanceNorm/moments/normalize/variance"
  op: "Sub"
  input: "transformer/residual/residual1/conv2/InstanceNorm/moments/normalize/Mul"
  input: "transformer/residual/residual1/conv2/InstanceNorm/moments/normalize/Square"
  attr {
    key: "T"
    value {
      type: DT_FLOAT
    }
  }
}
node {
  name: "transformer/residual/residual1/conv2/InstanceNorm/batchnorm/add/y"
  op: "Const"
  attr {
    key: "dtype"
    value {
      type: DT_FLOAT
    }
  }
  attr {
    key: "value"
    value {
      tensor {
        dtype: DT_FLOAT
        tensor_shape {
        }
        float_val: 9.99999974738e-06
      }
    }
  }
}
node {
  name: "transformer/residual/residual1/conv2/InstanceNorm/batchnorm/add"
  op: "Add"
  input: "transformer/residual/residual1/conv2/InstanceNorm/moments/normalize/variance"
  input: "transformer/residual/residual1/conv2/InstanceNorm/batchnorm/add/y"
  attr {
    key: "T"
    value {
      type: DT_FLOAT
    }
  }
}
node {
  name: "transformer/residual/residual1/conv2/InstanceNorm/batchnorm/Rsqrt"
  op: "Rsqrt"
  input: "transformer/residual/residual1/conv2/InstanceNorm/batchnorm/add"
  attr {
    key: "T"
    value {
      type: DT_FLOAT
    }
  }
}
node {
  name: "transformer/residual/residual1/conv2/InstanceNorm/Reshape_1/shape"
  op: "Const"
  attr {
    key: "dtype"
    value {
      type: DT_INT32
    }
  }
  attr {
    key: "value"
    value {
      tensor {
        dtype: DT_INT32
        tensor_shape {
          dim {
            size: 2
          }
        }
        tensor_content: "\032\000\000\000\001\000\000\000"
      }
    }
  }
}
node {
  name: "transformer/residual/residual1/conv2/InstanceNorm/Reshape_1_eightbit_reshape_dims"
  op: "Const"
  attr {
    key: "dtype"
    value {
      type: DT_INT32
    }
  }
  attr {
    key: "value"
    value {
      tensor {
        dtype: DT_INT32
        tensor_shape {
          dim {
            size: 1
          }
        }
        int_val: -1
      }
    }
  }
}
node {
  name: "transformer/residual/residual1/conv2/InstanceNorm/Reshape_1_eightbit_reduction_dims"
  op: "Const"
  attr {
    key: "dtype"
    value {
      type: DT_INT32
    }
  }
  attr {
    key: "value"
    value {
      tensor {
        dtype: DT_INT32
        tensor_shape {
          dim {
            size: 1
          }
        }
        int_val: 0
      }
    }
  }
}
node {
  name: "transformer/residual/residual1/conv2/InstanceNorm/Reshape_1_eightbit_reshape_style_num"
  op: "Reshape"
  input: "style_num"
  input: "transformer/residual/residual1/conv2/InstanceNorm/Reshape_1_eightbit_reshape_dims"
  attr {
    key: "T"
    value {
      type: DT_FLOAT
    }
  }
}
node {
  name: "transformer/residual/residual1/conv2/InstanceNorm/Reshape_1_eightbit_min_style_num"
  op: "Min"
  input: "transformer/residual/residual1/conv2/InstanceNorm/Reshape_1_eightbit_reshape_style_num"
  input: "transformer/residual/residual1/conv2/InstanceNorm/Reshape_1_eightbit_reduction_dims"
  attr {
    key: "T"
    value {
      type: DT_FLOAT
    }
  }
  attr {
    key: "keep_dims"
    value {
      b: false
    }
  }
}
node {
  name: "transformer/residual/residual1/conv2/InstanceNorm/Reshape_1_eightbit_max_style_num"
  op: "Max"
  input: "transformer/residual/residual1/conv2/InstanceNorm/Reshape_1_eightbit_reshape_style_num"
  input: "transformer/residual/residual1/conv2/InstanceNorm/Reshape_1_eightbit_reduction_dims"
  attr {
    key: "T"
    value {
      type: DT_FLOAT
    }
  }
  attr {
    key: "keep_dims"
    value {
      b: false
    }
  }
}
node {
  name: "transformer/residual/residual1/conv2/InstanceNorm/Reshape_1_eightbit_quantize_style_num"
  op: "QuantizeV2"
  input: "style_num"
  input: "transformer/residual/residual1/conv2/InstanceNorm/Reshape_1_eightbit_min_style_num"
  input: "transformer/residual/residual1/conv2/InstanceNorm/Reshape_1_eightbit_max_style_num"
  attr {
    key: "T"
    value {
      type: DT_QUINT8
    }
  }
  attr {
    key: "mode"
    value {
      s: "MIN_FIRST"
    }
  }
}
node {
  name: "transformer/residual/residual1/conv2/InstanceNorm/Reshape_1_eightbit_quantized_reshape"
  op: "QuantizedReshape"
  input: "transformer/residual/residual1/conv2/InstanceNorm/Reshape_1_eightbit_quantize_style_num"
  input: "transformer/residual/residual1/conv2/InstanceNorm/Reshape_1/shape"
  input: "transformer/residual/residual1/conv2/InstanceNorm/Reshape_1_eightbit_quantize_style_num:1"
  input: "transformer/residual/residual1/conv2/InstanceNorm/Reshape_1_eightbit_quantize_style_num:2"
  attr {
    key: "T"
    value {
      type: DT_QUINT8
    }
  }
}
node {
  name: "transformer/residual/residual1/conv2/InstanceNorm/Reshape_1"
  op: "Dequantize"
  input: "transformer/residual/residual1/conv2/InstanceNorm/Reshape_1_eightbit_quantized_reshape"
  input: "transformer/residual/residual1/conv2/InstanceNorm/Reshape_1_eightbit_quantized_reshape:1"
  input: "transformer/residual/residual1/conv2/InstanceNorm/Reshape_1_eightbit_quantized_reshape:2"
  attr {
    key: "T"
    value {
      type: DT_QUINT8
    }
  }
  attr {
    key: "mode"
    value {
      s: "MIN_FIRST"
    }
  }
}
node {
  name: "transformer/residual/residual1/conv2/InstanceNorm/gamma"
  op: "Const"
  attr {
    key: "dtype"
    value {
      type: DT_FLOAT
    }
  }
  attr {
    key: "value"
    value {
      tensor {
        dtype: DT_FLOAT
        tensor_shape {
          dim {
            size: 26
          }
          dim {
            size: 32
          }
        }
        tensor_content: "…"
      }
    }
  }
}
node {
  name: "transformer/residual/residual1/conv2/InstanceNorm/mul_1"
  op: "Mul"
  input: "transformer/residual/residual1/conv2/InstanceNorm/Reshape_1"
  input: "transformer/residual/residual1/conv2/InstanceNorm/gamma"
  attr {
    key: "T"
    value {
      type: DT_FLOAT
    }
  }
}
node {
  name: "transformer/residual/residual1/conv2/InstanceNorm/Sum_1/reduction_indices"
  op: "Const"
  attr {
    key: "dtype"
    value {
      type: DT_INT32
    }
  }
  attr {
    key: "value"
    value {
      tensor {
        dtype: DT_INT32
        tensor_shape {
        }
        int_val: 0
      }
    }
  }
}
node {
  name: "transformer/residual/residual1/conv2/InstanceNorm/Sum_1"
  op: "Sum"
  input: "transformer/residual/residual1/conv2/InstanceNorm/mul_1"
  input: "transformer/residual/residual1/conv2/InstanceNorm/Sum_1/reduction_indices"
  attr {
    key: "T"
    value {
      type: DT_FLOAT
    }
  }
  attr {
    key: "Tidx"
    value {
      type: DT_INT32
    }
  }
  attr {
    key: "keep_dims"
    value {
      b: true
    }
  }
}
node {
  name: "transformer/residual/residual1/conv2/InstanceNorm/ExpandDims_2/dim"
  op: "Const"
  attr {
    key: "dtype"
    value {
      type: DT_INT32
    }
  }
  attr {
    key: "value"
    value {
      tensor {
        dtype: DT_INT32
        tensor_shape {
        }
        int_val: 1
      }
    }
  }
}
node {
  name: "transformer/residual/residual1/conv2/InstanceNorm/ExpandDims_2"
  op: "ExpandDims"
  input: "transformer/residual/residual1/conv2/InstanceNorm/Sum_1"
  input: "transformer/residual/residual1/conv2/InstanceNorm/ExpandDims_2/dim"
  attr {
    key: "T"
    value {
      type: DT_FLOAT
    }
  }
  attr {
    key: "Tdim"
    value {
      type: DT_INT32
    }
  }
}
node {
  name: "transformer/residual/residual1/conv2/InstanceNorm/ExpandDims_3/dim"
  op: "Const"
  attr {
    key: "dtype"
    value {
      type: DT_INT32
    }
  }
  attr {
    key: "value"
    value {
      tensor {
        dtype: DT_INT32
        tensor_shape {
        }
        int_val: 1
      }
    }
  }
}
node {
  name: "transformer/residual/residual1/conv2/InstanceNorm/ExpandDims_3"
  op: "ExpandDims"
  input: "transformer/residual/residual1/conv2/InstanceNorm/ExpandDims_2"
  input: "transformer/residual/residual1/conv2/InstanceNorm/ExpandDims_3/dim"
  attr {
    key: "T"
    value {
      type: DT_FLOAT
    }
  }
  attr {
    key: "Tdim"
    value {
      type: DT_INT32
    }
  }
}
node {
  name: "transformer/residual/residual1/conv2/InstanceNorm/batchnorm/mul"
  op: "Mul"
  input: "transformer/residual/residual1/conv2/InstanceNorm/batchnorm/Rsqrt"
  input: "transformer/residual/residual1/conv2/InstanceNorm/ExpandDims_3"
  attr {
    key: "T"
    value {
      type: DT_FLOAT
    }
  }
}
node {
  name: "transformer/residual/residual1/conv2/InstanceNorm/batchnorm/mul_1"
  op: "Mul"
  input: "transformer/residual/residual1/conv2/convolution"
  input: "transformer/residual/residual1/conv2/InstanceNorm/batchnorm/mul"
  attr {
    key: "T"
    value {
      type: DT_FLOAT
    }
  }
}
node {
  name: "transformer/residual/residual1/conv2/InstanceNorm/Reshape/shape"
  op: "Const"
  attr {
    key: "dtype"
    value {
      type: DT_INT32
    }
  }
  attr {
    key: "value"
    value {
      tensor {
        dtype: DT_INT32
        tensor_shape {
          dim {
            size: 2
          }
        }
        tensor_content: "\032\000\000\000\001\000\000\000"
      }
    }
  }
}
node {
  name: "transformer/residual/residual1/conv2/InstanceNorm/Reshape_eightbit_reshape_dims"
  op: "Const"
  attr {
    key: "dtype"
    value {
      type: DT_INT32
    }
  }
  attr {
    key: "value"
    value {
      tensor {
        dtype: DT_INT32
        tensor_shape {
          dim {
            size: 1
          }
        }
        int_val: -1
      }
    }
  }
}
node {
  name: "transformer/residual/residual1/conv2/InstanceNorm/Reshape_eightbit_reduction_dims"
  op: "Const"
  attr {
    key: "dtype"
    value {
      type: DT_INT32
    }
…
  name: "transformer/expand/conv2/conv/InstanceNorm/Sum_1/reduction_indices"
  op: "Const"
  attr {
    key: "dtype"
    value {
      type: DT_INT32
    }
  }
  attr {
    key: "value"
    value {
      tensor {
        dtype: DT_INT32
        tensor_shape {
        }
        int_val: 0
      }
    }
  }
}
node {
  name: "transformer/expand/conv2/conv/InstanceNorm/Sum_1"
  op: "Sum"
  input: "transformer/expand/conv2/conv/InstanceNorm/mul_1"
  input: "transformer/expand/conv2/conv/InstanceNorm/Sum_1/reduction_indices"
  attr {
    key: "T"
    value {
      type: DT_FLOAT
    }
  }
  attr {
    key: "Tidx"
    value {
      type: DT_INT32
    }
  }
  attr {
    key: "keep_dims"
    value {
      b: true
    }
  }
}
node {
  name: "transformer/expand/conv2/conv/InstanceNorm/ExpandDims_2/dim"
  op: "Const"
  attr {
    key: "dtype"
    value {
      type: DT_INT32
    }
  }
  attr {
    key: "value"
    value {
      tensor {
        dtype: DT_INT32
        tensor_shape {
        }
        int_val: 1
      }
    }
  }
}
node {
  name: "transformer/expand/conv2/conv/InstanceNorm/ExpandDims_2"
  op: "ExpandDims"
  input: "transformer/expand/conv2/conv/InstanceNorm/Sum_1"
  input: "transformer/expand/conv2/conv/InstanceNorm/ExpandDims_2/dim"
  attr {
    key: "T"
    value {
      type: DT_FLOAT
    }
  }
  attr {
    key: "Tdim"
    value {
      type: DT_INT32
    }
  }
}
node {
  name: "transformer/expand/conv2/conv/InstanceNorm/ExpandDims_3/dim"
  op: "Const"
  attr {
    key: "dtype"
    value {
      type: DT_INT32
    }
  }
  attr {
    key: "value"
    value {
      tensor {
        dtype: DT_INT32
        tensor_shape {
        }
        int_val: 1
      }
    }
  }
}
node {
  name: "transformer/expand/conv2/conv/InstanceNorm/ExpandDims_3"
  op: "ExpandDims"
  input: "transformer/expand/conv2/conv/InstanceNorm/ExpandDims_2"
  input: "transformer/expand/conv2/conv/InstanceNorm/ExpandDims_3/dim"
  attr {
    key: "T"
    value {
      type: DT_FLOAT
    }
  }
  attr {
    key: "Tdim"
    value {
      type: DT_INT32
    }
  }
}
node {
  name: "transformer/expand/conv2/conv/InstanceNorm/batchnorm/mul"
  op: "Mul"
  input: "transformer/expand/conv2/conv/InstanceNorm/batchnorm/Rsqrt"
  input: "transformer/expand/conv2/conv/InstanceNorm/ExpandDims_3"
  attr {
    key: "T"
    value {
      type: DT_FLOAT
    }
  }
}
node {
  name: "transformer/expand/conv2/conv/InstanceNorm/batchnorm/mul_1"
  op: "Mul"
  input: "transformer/expand/conv2/conv/convolution"
  input: "transformer/expand/conv2/conv/InstanceNorm/batchnorm/mul"
  attr {
    key: "T"
    value {
      type: DT_FLOAT
    }
  }
}
node {
  name: "transformer/expand/conv2/conv/InstanceNorm/Reshape/shape"
  op: "Const"
  attr {
    key: "dtype"
    value {
      type: DT_INT32
    }
  }
  attr {
    key: "value"
    value {
      tensor {
        dtype: DT_INT32
        tensor_shape {
          dim {
            size: 2
          }
        }
        tensor_content: "\032\000\000\000\001\000\000\000"
      }
    }
  }
}
node {
  name: "transformer/expand/conv2/conv/InstanceNorm/Reshape_eightbit_reshape_dims"
  op: "Const"
  attr {
    key: "dtype"
    value {
      type: DT_INT32
    }
  }
  attr {
    key: "value"
    value {
      tensor {
        dtype: DT_INT32
        tensor_shape {
          dim {
            size: 1
          }
        }
        int_val: -1
      }
    }
  }
}
node {
  name: "transformer/expand/conv2/conv/InstanceNorm/Reshape_eightbit_reduction_dims"
  op: "Const"
  attr {
    key: "dtype"
    value {
      type: DT_INT32
    }
  }
  attr {
    key: "value"
    value {
      tensor {
        dtype: DT_INT32
        tensor_shape {
          dim {
            size: 1
          }
        }
        int_val: 0
      }
    }
  }
}
node {
  name: "transformer/expand/conv2/conv/InstanceNorm/Reshape_eightbit_reshape_style_num"
  op: "Reshape"
  input: "style_num"
  input: "transformer/expand/conv2/conv/InstanceNorm/Reshape_eightbit_reshape_dims"
  attr {
    key: "T"
    value {
      type: DT_FLOAT
    }
  }
}
node {
  name: "transformer/expand/conv2/conv/InstanceNorm/Reshape_eightbit_min_style_num"
  op: "Min"
  input: "transformer/expand/conv2/conv/InstanceNorm/Reshape_eightbit_reshape_style_num"
  input: "transformer/expand/conv2/conv/InstanceNorm/Reshape_eightbit_reduction_dims"
  attr {
    key: "T"
    value {
      type: DT_FLOAT
    }
  }
  attr {
    key: "keep_dims"
    value {
      b: false
    }
  }
}
node {
  name: "transformer/expand/conv2/conv/InstanceNorm/Reshape_eightbit_max_style_num"
  op: "Max"
  input: "transformer/expand/conv2/conv/InstanceNorm/Reshape_eightbit_reshape_style_num"
  input: "transformer/expand/conv2/conv/InstanceNorm/Reshape_eightbit_reduction_dims"
  attr {
    key: "T"
    value {
      type: DT_FLOAT
    }
  }
  attr {
    key: "keep_dims"
    value {
      b: false
    }
  }
}
node {
  name: "transformer/expand/conv2/conv/InstanceNorm/Reshape_eightbit_quantize_style_num"
  op: "QuantizeV2"
  input: "style_num"
  input: "transformer/expand/conv2/conv/InstanceNorm/Reshape_eightbit_min_style_num"
  input: "transformer/expand/conv2/conv/InstanceNorm/Reshape_eightbit_max_style_num"
  attr {
    key: "T"
    value {
      type: DT_QUINT8
    }
  }
  attr {
    key: "mode"
    value {
      s: "MIN_FIRST"
    }
  }
}
node {
  name: "transformer/expand/conv2/conv/InstanceNorm/Reshape_eightbit_quantized_reshape"
  op: "QuantizedReshape"
  input: "transformer/expand/conv2/conv/InstanceNorm/Reshape_eightbit_quantize_style_num"
  input: "transformer/expand/conv2/conv/InstanceNorm/Reshape/shape"
  input: "transformer/expand/conv2/conv/InstanceNorm/Reshape_eightbit_quantize_style_num:1"
  input: "transformer/expand/conv2/conv/InstanceNorm/Reshape_eightbit_quantize_style_num:2"
  attr {
    key: "T"
    value {
      type: DT_QUINT8
    }
  }
}
node {
  name: "transformer/expand/conv2/conv/InstanceNorm/Reshape"
  op: "Dequantize"
  input: "transformer/expand/conv2/conv/InstanceNorm/Reshape_eightbit_quantized_reshape"
  input: "transformer/expand/conv2/conv/InstanceNorm/Reshape_eightbit_quantized_reshape:1"
  input: "transformer/expand/conv2/conv/InstanceNorm/Reshape_eightbit_quantized_reshape:2"
  attr {
    key: "T"
    value {
      type: DT_QUINT8
    }
  }
  attr {
    key: "mode"
    value {
      s: "MIN_FIRST"
    }
  }
}
node {
  name: "transformer/expand/conv2/conv/InstanceNorm/beta"
  op: "Const"
  attr {
    key: "dtype"
    value {
      type: DT_FLOAT
    }
  }
  attr {
    key: "value"
    value {
      tensor {
        dtype: DT_FLOAT
        tensor_shape {
          dim {
            size: 26
          }
          dim {
            size: 4
          }
        }
        tensor_content: "…"
      }
    }
  }
}
node {
  name: "transformer/expand/conv2/conv/InstanceNorm/mul"
  op: "Mul"
  input: "transformer/expand/conv2/conv/InstanceNorm/Reshape"
  input: "transformer/expand/conv2/conv/InstanceNorm/beta"
  attr {
    key: "T"
    value {
      type: DT_FLOAT
    }
  }
}
node {
  name: "transformer/expand/conv2/conv/InstanceNorm/Sum/reduction_indices"
  op: "Const"
  attr {
    key: "dtype"
    value {
      type: DT_INT32
    }
  }
  attr {
    key: "value"
    value {
      tensor {
        dtype: DT_INT32
        tensor_shape {
        }
        int_val: 0
      }
    }
  }
}
node {
  name: "transformer/expand/conv2/conv/InstanceNorm/Sum"
  op: "Sum"
  input: "transformer/expand/conv2/conv/InstanceNorm/mul"
  input: "transformer/expand/conv2/conv/InstanceNorm/Sum/reduction_indices"
  attr {
    key: "T"
    value {
      type: DT_FLOAT
    }
  }
  attr {
    key: "Tidx"
    value {
      type: DT_INT32
    }
  }
  attr {
    key: "keep_dims"
    value {
      b: true
    }
  }
}
node {
  name: "transformer/expand/conv2/conv/InstanceNorm/ExpandDims/dim"
  op: "Const"
  attr {
    key: "dtype"
    value {
      type: DT_INT32
    }
  }
  attr {
    key: "value"
    value {
      tensor {
        dtype: DT_INT32
        tensor_shape {
        }
        int_val: 1
      }
    }
  }
}
node {
  name: "transformer/expand/conv2/conv/InstanceNorm/ExpandDims"
  op: "ExpandDims"
  input: "transformer/expand/conv2/conv/InstanceNorm/Sum"
  input: "transformer/expand/conv2/conv/InstanceNorm/ExpandDims/dim"
  attr {
    key: "T"
    value {
      type: DT_FLOAT
    }
  }
  attr {
    key: "Tdim"
    value {
      type: DT_INT32
    }
  }
}
node {
  name: "transformer/expand/conv2/conv/InstanceNorm/ExpandDims_1/dim"
  op: "Const"
  attr {
    key: "dtype"
    value {
      type: DT_INT32
    }
  }
  attr {
    key: "value"
    value {
      tensor {
        dtype: DT_INT32
        tensor_shape {
        }
        int_val: 1
      }
    }
  }
}
node {
  name: "transformer/expand/conv2/conv/InstanceNorm/ExpandDims_1"
  op: "ExpandDims"
  input: "transformer/expand/conv2/conv/InstanceNorm/ExpandDims"
  input: "transformer/expand/conv2/conv/InstanceNorm/ExpandDims_1/dim"
  attr {
    key: "T"
    value {
      type: DT_FLOAT
    }
  }
  attr {
    key: "Tdim"
    value {
      type: DT_INT32
    }
  }
}
node {
  name: "transformer/expand/conv2/conv/InstanceNorm/batchnorm/mul_2"
  op: "Mul"
  input: "transformer/expand/conv2/conv/InstanceNorm/moments/normalize/mean"
  input: "transformer/expand/conv2/conv/InstanceNorm/batchnorm/mul"
  attr {
    key: "T"
    value {
      type: DT_FLOAT
    }
  }
}
node {
  name: "transformer/expand/conv2/conv/InstanceNorm/batchnorm/sub"
  op: "Sub"
  input: "transformer/expand/conv2/conv/InstanceNorm/ExpandDims_1"
  input: "transformer/expand/conv2/conv/InstanceNorm/batchnorm/mul_2"
  attr {
    key: "T"
    value {
      type: DT_FLOAT
    }
  }
}
node {
  name: "transformer/expand/conv2/conv/InstanceNorm/batchnorm/add_1"
  op: "Add"
  input: "transformer/expand/conv2/conv/InstanceNorm/batchnorm/mul_1"
  input: "transformer/expand/conv2/conv/InstanceNorm/batchnorm/sub"
  attr {
    key: "T"
    value {
      type: DT_FLOAT
    }
  }
}
node {
  name: "transformer/expand/conv2/conv/Relu_eightbit_reshape_dims"
  op: "Const"
  attr {
    key: "dtype"
    value {
      type: DT_INT32
    }
  }
  attr {
    key: "value"
    value {
      tensor {
        dtype: DT_INT32
        tensor_shape {
          dim {
            size: 1
          }
        }
        int_val: -1
      }
    }
  }
}
node {
  name: "transformer/expand/conv2/conv/Relu_eightbit_reduction_dims"
  op: "Const"
  attr {
    key: "dtype"
    value {
      type: DT_INT32
    }
  }
  attr {
    key: "value"
    value {
      tensor {
        dtype: DT_INT32
        tensor_shape {
          dim {
            size: 1
          }
        }
        int_val: 0
      }
    }
  }
}
node {
  name: "transformer/expand/conv2/conv/Relu_eightbit_reshape_transformer/expand/conv2/conv/InstanceNorm/batchnorm/add_1"
  op: "Reshape"
  input: "transformer/expand/conv2/conv/InstanceNorm/batchnorm/add_1"
  input: "transformer/expand/conv2/conv/Relu_eightbit_reshape_dims"
  attr {
    key: "T"
    value {
      type: DT_FLOAT
    }
  }
}
node {
  name: "transformer/expand/conv2/conv/Relu_eightbit_min_transformer/expand/conv2/conv/InstanceNorm/batchnorm/add_1"
  op: "Min"
  input: "transformer/expand/conv2/conv/Relu_eightbit_reshape_transformer/expand/conv2/conv/InstanceNorm/batchnorm/add_1"
  input: "transformer/expand/conv2/conv/Relu_eightbit_reduction_dims"
  attr {
    key: "T"
    value {
      type: DT_FLOAT
    }
  }
  attr {
    key: "keep_dims"
    value {
      b: false
    }
  }
}
node {
  name: "transformer/expand/conv2/conv/Relu_eightbit_max_transformer/expand/conv2/conv/InstanceNorm/batchnorm/add_1"
  op: "Max"
  input: "transformer/expand/conv2/conv/Relu_eightbit_reshape_transformer/expand/conv2/conv/InstanceNorm/batchnorm/add_1"
  input: "transformer/expand/conv2/conv/Relu_eightbit_reduction_dims"
  attr {
    key: "T"
    value {
      type: DT_FLOAT
    }
  }
  attr {
    key: "keep_dims"
    value {
      b: false
    }
  }
}
node {
  name: "transformer/expand/conv2/conv/Relu_eightbit_quantize_transformer/expand/conv2/conv/InstanceNorm/batchnorm/add_1"
  op: "QuantizeV2"
  input: "transformer/expand/conv2/conv/InstanceNorm/batchnorm/add_1"
  input: "transformer/expand/conv2/conv/Relu_eightbit_min_transformer/expand/conv2/conv/InstanceNorm/batchnorm/add_1"
  input: "transformer/expand/conv2/conv/Relu_eightbit_max_transformer/expand/conv2/conv/InstanceNorm/batchnorm/add_1"
  attr {
    key: "T"
    value {
      type: DT_QUINT8
    }
  }
  attr {
    key: "mode"
    value {
      s: "MIN_FIRST"
    }
  }
}
node {
  name: "transformer/expand/conv2/conv/Relu_eightbit_quantized"
  op: "QuantizedRelu"
  input: "transformer/expand/conv2/conv/Relu_eightbit_quantize_transformer/expand/conv2/conv/InstanceNorm/batchnorm/add_1"
  input: "transformer/expand/conv2/conv/Relu_eightbit_quantize_transformer/expand/conv2/conv/InstanceNorm/batchnorm/add_1:1"
  input: "transformer/expand/conv2/conv/Relu_eightbit_quantize_transformer/expand/conv2/conv/InstanceNorm/batchnorm/add_1:2"
  attr {
    key: "Tinput"
    value {
      type: DT_QUINT8
    }
  }
}
node {
  name: "transformer/expand/conv2/conv/Relu"
  op: "Dequantize"
  input: "transformer/expand/conv2/conv/Relu_eightbit_quantized"
  input: "transformer/expand/conv2/conv/Relu_eightbit_quantized:1"
  input: "transformer/expand/conv2/conv/Relu_eightbit_quantized:2"
  attr {
    key: "T"
    value {
      type: DT_QUINT8
    }
  }
  attr {
    key: "mode"
    value {
      s: "MIN_FIRST"
    }
  }
}
node {
  name: "transformer/expand/conv3/mul/x"
  op: "Const"
  attr {
    key: "dtype"
    value {
      type: DT_INT32
    }
  }
  attr {
    key: "value"
    value {
      tensor {
        dtype: DT_INT32
        tensor_shape {
        }
        int_val: 1
      }
    }
  }
}
node {
  name: "transformer/expand/conv3/Shape"
  op: "Shape"
  input: "transformer/expand/conv2/conv/Relu"
  attr {
    key: "T"
    value {
      type: DT_FLOAT
    }
  }
  attr {
    key: "out_type"
    value {
      type: DT_INT32
    }
  }
}
node {
  name: "transformer/expand/conv3/strided_slice/stack"
  op: "Const"
  attr {
    key: "dtype"
    value {
      type: DT_INT32
    }
  }
  attr {
    key: "value"
    value {
      tensor {
        dtype: DT_INT32
        tensor_shape {
          dim {
            size: 1
          }
        }
        int_val: 1
      }
    }
  }
}
node {
  name: "transformer/expand/conv3/strided_slice/stack_1"
  op: "Const"
  attr {
    key: "dtype"
    value {
      type: DT_INT32
    }
  }
  attr {
    key: "value"
    value {
      tensor {
        dtype: DT_INT32
        tensor_shape {
          dim {
            size: 1
          }
        }
        int_val: 2
      }
    }
  }
}
node {
  name: "transformer/expand/conv3/strided_slice/stack_2"
  op: "Const"
  attr {
    key: "dtype"
    value {
      type: DT_INT32
    }
  }
  attr {
    key: "value"
    value {
      tensor {
        dtype: DT_INT32
        tensor_shape {
          dim {
            size: 1
          }
        }
        int_val: 1
      }
    }
  }
}
node {
  name: "transformer/expand/conv3/strided_slice"
  op: "StridedSlice"
  input: "transformer/expand/conv3/Shape"
  input: "transformer/expand/conv3/strided_slice/stack"
  input: "transformer/expand/conv3/strided_slice/stack_1"
  input: "transformer/expand/conv3/strided_slice/stack_2"
  attr {
    key: "Index"
    value {
      type: DT_INT32
    }
  }
  attr {
    key: "T"
    value {
      type: DT_INT32
    }
  }
  attr {
    key: "begin_mask"
    value {
      i: 0
    }
  }
  attr {
    key: "ellipsis_mask"
    value {
      i: 0
    }
  }
  attr {
    key: "end_mask"
    value {
      i: 0
    }
  }
  attr {
    key: "new_axis_mask"
    value {
      i: 0
    }
  }
  attr {
    key: "shrink_axis_mask"
    value {
      i: 1
    }
  }
}
node {
  name: "transformer/expand/conv3/mul"
  op: "Mul"
  input: "transformer/expand/conv3/mul/x"
  input: "transformer/expand/conv3/strided_slice"
  attr {
    key: "T"
    value {
      type: DT_INT32
    }
  }
}
node {
  name: "transformer/expand/conv3/mul_1/x"
  op: "Const"
  attr {
    key: "dtype"
    value {
      type: DT_INT32
    }
  }
  attr {
    key: "value"
    value {
      tensor {
        dtype: DT_INT32
        tensor_shape {
        }
        int_val: 1
      }
    }
  }
}
node {
  name: "transformer/expand/conv3/strided_slice_1/stack"
  op: "Const"
  attr {
    key: "dtype"
    value {
      type: DT_INT32
    }
  }
  attr {
    key: "value"
    value {
      tensor {
        dtype: DT_INT32
        tensor_shape {
          dim {
            size: 1
          }
        }
        int_val: 2
      }
    }
  }
}
node {
  name: "transformer/expand/conv3/strided_slice_1/stack_1"
  op: "Const"
  attr {
    key: "dtype"
    value {
      type: DT_INT32
    }
  }
  attr {
    key: "value"
    value {
      tensor {
        dtype: DT_INT32
        tensor_shape {
          dim {
            size: 1
          }
        }
        int_val: 3
      }
    }
  }
}
node {
  name: "transformer/expand/conv3/strided_slice_1/stack_2"
  op: "Const"
  attr {
    key: "dtype"
    value {
      type: DT_INT32
    }
  }
  attr {
    key: "value"
    value {
      tensor {
        dtype: DT_INT32
        tensor_shape {
          dim {
            size: 1
          }
        }
        int_val: 1
      }
    }
  }
}
node {
  name: "transformer/expand/conv3/strided_slice_1"
  op: "StridedSlice"
  input: "transformer/expand/conv3/Shape"
  input: "transformer/expand/conv3/strided_slice_1/stack"
  input: "transformer/expand/conv3/strided_slice_1/stack_1"
  input: "transformer/expand/conv3/strided_slice_1/stack_2"
  attr {
    key: "Index"
    value {
      type: DT_INT32
    }
  }
  attr {
    key: "T"
    value {
      type: DT_INT32
    }
  }
  attr {
    key: "begin_mask"
    value {
      i: 0
    }
  }
  attr {
    key: "ellipsis_mask"
    value {
      i: 0
    }
  }
  attr {
    key: "end_mask"
    value {
      i: 0
    }
  }
  attr {
    key: "new_axis_mask"
    value {
      i: 0
    }
  }
  attr {
    key: "shrink_axis_mask"
    value {
      i: 1
    }
  }
}
node {
  name: "transformer/expand/conv3/mul_1"
  op: "Mul"
  input: "transformer/expand/conv3/mul_1/x"
  input: "transformer/expand/conv3/strided_slice_1"
  attr {
    key: "T"
    value {
      type: DT_INT32
    }
  }
}
node {
  name: "transformer/expand/conv3/ResizeNearestNeighbor/size"
  op: "Pack"
  input: "transformer/expand/conv3/mul"
  input: "transformer/expand/conv3/mul_1"
  attr {
    key: "N"
    value {
      i: 2
    }
  }
  attr {
    key: "T"
    value {
      type: DT_INT32
    }
  }
  attr {
    key: "axis"
    value {
      i: 0
    }
  }
}
node {
  name: "transformer/expand/conv3/ResizeNearestNeighbor"
  op: "ResizeNearestNeighbor"
  input: "transformer/expand/conv2/conv/Relu"
  input: "transformer/expand/conv3/ResizeNearestNeighbor/size"
  attr {
    key: "T"
    value {
      type: DT_FLOAT
    }
  }
  attr {
    key: "align_corners"
    value {
      b: false
    }
  }
}
node {
  name: "transformer/expand/conv3/MirrorPad/paddings"
  op: "Const"
  attr {
    key: "dtype"
    value {
      type: DT_INT32
    }
  }
  attr {
    key: "value"
    value {
      tensor {
        dtype: DT_INT32
        tensor_shape {
          dim {
            size: 4
          }
          dim {
            size: 2
          }
        }
        tensor_content: "…"
      }
    }
  }
}
node {
  name: "transformer/expand/conv3/MirrorPad"
  op: "MirrorPad"
  input: "transformer/expand/conv3/ResizeNearestNeighbor"
  input: "transformer/expand/conv3/MirrorPad/paddings"
  attr {
    key: "T"
    value {
      type: DT_FLOAT
    }
  }
  attr {
    key: "Tpaddings"
    value {
      type: DT_INT32
    }
  }
  attr {
    key: "mode"
    value {
      s: "REFLECT"
    }
  }
}
node {
  name: "transformer/expand/conv3/conv/weights_quint8_const"
  op: "Const"
  attr {
    key: "dtype"
    value {
      type: DT_QUINT8
    }
  }
  attr {
    key: "value"
    value {
      tensor {
        dtype: DT_QUINT8
        tensor_shape {
          dim {
            size: 9
          }
          dim {
            size: 9
          }
          dim {
            size: 4
          }
          dim {
            size: 3
          }
        }
        tensor_content: "…"
      }
    }
  }
}
node {
  name: "transformer/expand/conv3/conv/weights_min"
  op: "Const"
  attr {
    key: "dtype"
    value {
      type: DT_FLOAT
    }
  }
  attr {
    key: "value"
    value {
      tensor {
        dtype: DT_FLOAT
        tensor_shape {
        }
        float_val: -2.99798178673
      }
    }
  }
}
node {
  name: "transformer/expand/conv3/conv/weights_max"
  op: "Const"
  attr {
    key: "dtype"
    value {
      type: DT_FLOAT
    }
  }
  attr {
    key: "value"
    value {
      tensor {
        dtype: DT_FLOAT
        tensor_shape {
        }
        float_val: 1.72047507763
      }
    }
  }
}
node {
  name: "transformer/expand/conv3/conv/convolution_eightbit_reshape_dims"
  op: "Const"
  attr {
    key: "dtype"
    value {
      type: DT_INT32
    }
  }
  attr {
    key: "value"
    value {
      tensor {
        dtype: DT_INT32
        tensor_shape {
          dim {
            size: 1
          }
        }
        int_val: -1
      }
    }
  }
}
node {
  name: "transformer/expand/conv3/conv/convolution_eightbit_reduction_dims"
  op: "Const"
  attr {
    key: "dtype"
    value {
      type: DT_INT32
    }
  }
  attr {
    key: "value"
    value {
      tensor {
        dtype: DT_INT32
        tensor_shape {
          dim {
            size: 1
          }
        }
        int_val: 0
      }
    }
  }
}
node {
  name: "transformer/expand/conv3/conv/convolution_eightbit_reshape_transformer/expand/conv3/MirrorPad"
  op: "Reshape"
  input: "transformer/expand/conv3/MirrorPad"
  input: "transformer/expand/conv3/conv/convolution_eightbit_reshape_dims"
  attr {
    key: "T"
    value {
      type: DT_FLOAT
    }
  }
}
node {
  name: "transformer/expand/conv3/conv/convolution_eightbit_min_transformer/expand/conv3/MirrorPad"
  op: "Min"
  input: "transformer/expand/conv3/conv/convolution_eightbit_reshape_transformer/expand/conv3/MirrorPad"
  input: "transformer/expand/conv3/conv/convolution_eightbit_reduction_dims"
  attr {
    key: "T"
    value {
      type: DT_FLOAT
    }
  }
  attr {
    key: "keep_dims"
    value {
      b: false
    }
  }
}
node {
  name: "transformer/expand/conv3/conv/convolution_eightbit_max_transformer/expand/conv3/MirrorPad"
  op: "Max"
  input: "transformer/expand/conv3/conv/convolution_eightbit_reshape_transformer/expand/conv3/MirrorPad"
  input: "transformer/expand/conv3/conv/convolution_eightbit_reduction_dims"
  attr {
    key: "T"
    value {
      type: DT_FLOAT
    }
  }
  attr {
    key: "keep_dims"
    value {
      b: false
    }
  }
}
node {
  name: "transformer/expand/conv3/conv/convolution_eightbit_quantize_transformer/expand/conv3/MirrorPad"
  op: "QuantizeV2"
  input: "transformer/expand/conv3/MirrorPad"
  input: "transformer/expand/conv3/conv/convolution_eightbit_min_transformer/expand/conv3/MirrorPad"
  input: "transformer/expand/conv3/conv/convolution_eightbit_max_transformer/expand/conv3/MirrorPad"
  attr {
    key: "T"
    value {
      type: DT_QUINT8
    }
  }
  attr {
    key: "mode"
    value {
      s: "MIN_FIRST"
    }
  }
}
node {
  name: "transformer/expand/conv3/conv/convolution_eightbit_quantized_conv"
  op: "QuantizedConv2D"
  input: "transformer/expand/conv3/conv/convolution_eightbit_quantize_transformer/expand/conv3/MirrorPad"
  input: "transformer/expand/conv3/conv/weights_quint8_const"
  input: "transformer/expand/conv3/conv/convolution_eightbit_quantize_transformer/expand/conv3/MirrorPad:1"
  input: "transformer/expand/conv3/conv/convolution_eightbit_quantize_transformer/expand/conv3/MirrorPad:2"
  input: "transformer/expand/conv3/conv/weights_min"
  input: "transformer/expand/conv3/conv/weights_max"
  attr {
    key: "Tfilter"
    value {
      type: DT_QUINT8
    }
  }
  attr {
    key: "Tinput"
    value {
      type: DT_QUINT8
    }
  }
  attr {
    key: "out_type"
    value {
      type: DT_QINT32
    }
  }
  attr {
    key: "padding"
    value {
      s: "VALID"
    }
  }
  attr {
    key: "strides"
    value {
      list {
        i: 1
        i: 1
        i: 1
        i: 1
      }
    }
  }
}
node {
  name: "transformer/expand/conv3/conv/convolution_eightbit_requant_range"
  op: "RequantizationRange"
  input: "transformer/expand/conv3/conv/convolution_eightbit_quantized_conv"
  input: "transformer/expand/conv3/conv/convolution_eightbit_quantized_conv:1"
  input: "transformer/expand/conv3/conv/convolution_eightbit_quantized_conv:2"
  attr {
    key: "Tinput"
    value {
      type: DT_QINT32
    }
  }
}
node {
  name: "transformer/expand/conv3/conv/convolution_eightbit_requantize"
  op: "Requantize"
  input: "transformer/expand/conv3/conv/convolution_eightbit_quantized_conv"
  input: "transformer/expand/conv3/conv/convolution_eightbit_quantized_conv:1"
  input: "transformer/expand/conv3/conv/convolution_eightbit_quantized_conv:2"
  input: "transformer/expand/conv3/conv/convolution_eightbit_requant_range:0"
  input: "transformer/expand/conv3/conv/convolution_eightbit_requant_range:1"
  attr {
    key: "Tinput"
    value {
      type: DT_QINT32
    }
  }
  attr {
    key: "out_type"
    value {
      type: DT_QUINT8
    }
  }
}
node {
  name: "transformer/expand/conv3/conv/convolution"
  op: "Dequantize"
  input: "transformer/expand/conv3/conv/convolution_eightbit_requantize"
  input: "transformer/expand/conv3/conv/convolution_eightbit_requantize:1"
  input: "transformer/expand/conv3/conv/convolution_eightbit_requantize:2"
  attr {
    key: "T"
    value {
      type: DT_QUINT8
    }
  }
  attr {
    key: "mode"
    value {
      s: "MIN_FIRST"
    }
  }
}
node {
  name: "transformer/expand/conv3/conv/InstanceNorm/moments/sufficient_statistics/Square"
  op: "Square"
  input: "transformer/expand/conv3/conv/convolution"
  attr {
    key: "T"
    value {
      type: DT_FLOAT
    }
  }
}
node {
  name: "transformer/expand/conv3/conv/InstanceNorm/moments/sufficient_statistics/var_ss/reduction_indices"
  op: "Const"
  attr {
    key: "dtype"
    value {
      type: DT_INT32
    }
  }
  attr {
    key: "value"
    value {
      tensor {
        dtype: DT_INT32
        tensor_shape {
          dim {
            size: 2
          }
        }
        tensor_content: "\001\000\000\000\002\000\000\000"
      }
    }
  }
}
node {
  name: "transformer/expand/conv3/conv/InstanceNorm/moments/sufficient_statistics/var_ss"
  op: "Sum"
  input: "transformer/expand/conv3/conv/InstanceNorm/moments/sufficient_statistics/Square"
  input: "transformer/expand/conv3/conv/InstanceNorm/moments/sufficient_statistics/var_ss/reduction_indices"
  attr {
    key: "T"
    value {
      type: DT_FLOAT
    }
  }
  attr {
    key: "Tidx"
    value {
      type: DT_INT32
    }
  }
  attr {
    key: "keep_dims"
    value {
      b: true
    }
  }
}
node {
  name: "transformer/expand/conv3/conv/InstanceNorm/moments/sufficient_statistics/Shape"
  op: "Shape"
  input: "transformer/expand/conv3/conv/convolution"
  attr {
    key: "T"
    value {
      type: DT_FLOAT
    }
  }
  attr {
    key: "out_type"
    value {
      type: DT_INT32
    }
  }
}
node {
  name: "transformer/expand/conv3/conv/InstanceNorm/moments/sufficient_statistics/Cast"
  op: "Cast"
  input: "transformer/expand/conv3/conv/InstanceNorm/moments/sufficient_statistics/Shape"
  attr {
    key: "DstT"
    value {
      type: DT_FLOAT
    }
  }
  attr {
    key: "SrcT"
    value {
      type: DT_INT32
    }
  }
}
node {
  name: "transformer/expand/conv3/conv/InstanceNorm/moments/sufficient_statistics/Gather/indices"
  op: "Const"
  attr {
    key: "dtype"
    value {
      type: DT_INT32
    }
  }
  attr {
    key: "value"
    value {
      tensor {
        dtype: DT_INT32
        tensor_shape {
          dim {
            size: 2
          }
        }
        tensor_content: "\001\000\000\000\002\000\000\000"
      }
    }
  }
}
node {
  name: "transformer/expand/conv3/conv/InstanceNorm/moments/sufficient_statistics/Gather"
  op: "Gather"
  input: "transformer/expand/conv3/conv/InstanceNorm/moments/sufficient_statistics/Cast"
  input: "transformer/expand/conv3/conv/InstanceNorm/moments/sufficient_statistics/Gather/indices"
  attr {
    key: "Tindices"
    value {
      type: DT_INT32
    }
  }
  attr {
    key: "Tparams"
    value {
      type: DT_FLOAT
    }
  }
  attr {
    key: "validate_indices"
    value {
      b: true
    }
  }
}
node {
  name: "transformer/expand/conv3/conv/InstanceNorm/moments/sufficient_statistics/Const"
  op: "Const"
  attr {
    key: "dtype"
    value {
      type: DT_INT32
    }
  }
  attr {
    key: "value"
    value {
      tensor {
        dtype: DT_INT32
        tensor_shape {
          dim {
            size: 1
          }
        }
        int_val: 0
      }
    }
  }
}
node {
  name: "transformer/expand/conv3/conv/InstanceNorm/moments/sufficient_statistics/count"
  op: "Prod"
  input: "transformer/expand/conv3/conv/InstanceNorm/moments/sufficient_statistics/Gather"
  input: "transformer/expand/conv3/conv/InstanceNorm/moments/sufficient_statistics/Const"
  attr {
    key: "T"
    value {
      type: DT_FLOAT
    }
  }
  attr {
    key: "Tidx"
    value {
      type: DT_INT32
    }
  }
  attr {
    key: "keep_dims"
    value {
      b: false
    }
  }
}
node {
  name: "transformer/expand/conv3/conv/InstanceNorm/moments/sufficient_statistics/mean_ss/reduction_indices"
  op: "Const"
  attr {
    key: "dtype"
    value {
      type: DT_INT32
    }
  }
  attr {
    key: "value"
    value {
      tensor {
        dtype: DT_INT32
        tensor_shape {
          dim {
            size: 2
          }
        }
        tensor_content: "\001\000\000\000\002\000\000\000"
      }
    }
  }
}
node {
  name: "transformer/expand/conv3/conv/InstanceNorm/moments/sufficient_statistics/mean_ss"
  op: "Sum"
  input: "transformer/expand/conv3/conv/convolution"
  input: "transformer/expand/conv3/conv/InstanceNorm/moments/sufficient_statistics/mean_ss/reduction_indices"
  attr {
    key: "T"
    value {
      type: DT_FLOAT
    }
  }
  attr {
    key: "Tidx"
    value {
      type: DT_INT32
    }
  }
  attr {
    key: "keep_dims"
    value {
      b: true
    }
  }
}
node {
  name: "transformer/expand/conv3/conv/InstanceNorm/moments/normalize/divisor"
  op: "Reciprocal"
  input: "transformer/expand/conv3/conv/InstanceNorm/moments/sufficient_statistics/count"
  input: "^transformer/expand/conv3/conv/InstanceNorm/moments/sufficient_statistics/mean_ss"
  input: "^transformer/expand/conv3/conv/InstanceNorm/moments/sufficient_statistics/var_ss"
  attr {
    key: "T"
    value {
      type: DT_FLOAT
    }
  }
}
node {
  name: "transformer/expand/conv3/conv/InstanceNorm/moments/normalize/Mul"
  op: "Mul"
  input: "transformer/expand/conv3/conv/InstanceNorm/moments/sufficient_statistics/var_ss"
  input: "transformer/expand/conv3/conv/InstanceNorm/moments/normalize/divisor"
  attr {
    key: "T"
    value {
      type: DT_FLOAT
    }
  }
}
node {
  name: "transformer/expand/conv3/conv/InstanceNorm/moments/normalize/mean"
  op: "Mul"
  input: "transformer/expand/conv3/conv/InstanceNorm/moments/sufficient_statistics/mean_ss"
  input: "transformer/expand/conv3/conv/InstanceNorm/moments/normalize/divisor"
  attr {
    key: "T"
    value {
      type: DT_FLOAT
    }
  }
}
node {
  name: "transformer/expand/conv3/conv/InstanceNorm/moments/normalize/Square"
  op: "Square"
  input: "transformer/expand/conv3/conv/InstanceNorm/moments/normalize/mean"
  attr {
    key: "T"
    value {
      type: DT_FLOAT
    }
  }
}
node {
  name: "transformer/expand/conv3/conv/InstanceNorm/moments/normalize/variance"
  op: "Sub"
  input: "transformer/expand/conv3/conv/InstanceNorm/moments/normalize/Mul"
  input: "transformer/expand/conv3/conv/InstanceNorm/moments/normalize/Square"
  attr {
    key: "T"
    value {
      type: DT_FLOAT
    }
  }
}
node {
  name: "transformer/expand/conv3/conv/InstanceNorm/batchnorm/add/y"
  op: "Const"
  attr {
    key: "dtype"
    value {
      type: DT_FLOAT
    }
  }
  attr {
    key: "value"
    value {
      tensor {
        dtype: DT_FLOAT
        tensor_shape {
        }
        float_val: 9.99999974738e-06
      }
    }
  }
}
node {
  name: "transformer/expand/conv3/conv/InstanceNorm/batchnorm/add"
  op: "Add"
  input: "transformer/expand/conv3/conv/InstanceNorm/moments/normalize/variance"
  input: "transformer/expand/conv3/conv/InstanceNorm/batchnorm/add/y"
  attr {
    key: "T"
    value {
      type: DT_FLOAT
    }
  }
}
node {
  name: "transformer/expand/conv3/conv/InstanceNorm/batchnorm/Rsqrt"
  op: "Rsqrt"
  input: "transformer/expand/conv3/conv/InstanceNorm/batchnorm/add"
  attr {
    key: "T"
    value {
      type: DT_FLOAT
    }
  }
}
node {
  name: "transformer/expand/conv3/conv/InstanceNorm/Reshape_1/shape"
  op: "Const"
  attr {
    key: "dtype"
    value {
      type: DT_INT32
    }
  }
  attr {
    key: "value"
    value {
      tensor {
        dtype: DT_INT32
        tensor_shape {
          dim {
            size: 2
          }
        }
        tensor_content: "\032\000\000\000\001\000\000\000"
      }
    }
  }
}
node {
  name: "transformer/expand/conv3/conv/InstanceNorm/Reshape_1_eightbit_reshape_dims"
  op: "Const"
  attr {
    key: "dtype"
    value {
      type: DT_INT32
    }
  }
  attr {
    key: "value"
    value {
      tensor {
        dtype: DT_INT32
        tensor_shape {
          dim {
            size: 1
          }
        }
        int_val: -1
      }
    }
  }
}
node {
  name: "transformer/expand/conv3/conv/InstanceNorm/Reshape_1_eightbit_reduction_dims"
  op: "Const"
  attr {
    key: "dtype"
    value {
      type: DT_INT32
    }
  }
  attr {
    key: "value"
    value {
      tensor {
        dtype: DT_INT32
        tensor_shape {
          dim {
            size: 1
          }
        }
        int_val: 0
      }
    }
  }
}
node {
  name: "transformer/expand/conv3/conv/InstanceNorm/Reshape_1_eightbit_reshape_style_num"
  op: "Reshape"
  input: "style_num"
  input: "transformer/expand/conv3/conv/InstanceNorm/Reshape_1_eightbit_reshape_dims"
  attr {
    key: "T"
    value {
      type: DT_FLOAT
    }
  }
}
node {
  name: "transformer/expand/conv3/conv/InstanceNorm/Reshape_1_eightbit_min_style_num"
  op: "Min"
  input: "transformer/expand/conv3/conv/InstanceNorm/Reshape_1_eightbit_reshape_style_num"
  input: "transformer/expand/conv3/conv/InstanceNorm/Reshape_1_eightbit_reduction_dims"
  attr {
    key: "T"
    value {
      type: DT_FLOAT
    }
  }
  attr {
    key: "keep_dims"
    value {
      b: false
    }
  }
}
node {
  name: "transformer/expand/conv3/conv/InstanceNorm/Reshape_1_eightbit_max_style_num"
  op: "Max"
  input: "transformer/expand/conv3/conv/InstanceNorm/Reshape_1_eightbit_reshape_style_num"
  input: "transformer/expand/conv3/conv/InstanceNorm/Reshape_1_eightbit_reduction_dims"
  attr {
    key: "T"
    value {
      type: DT_FLOAT
    }
  }
  attr {
    key: "keep_dims"
    value {
      b: false
    }
  }
}
node {
  name: "transformer/expand/conv3/conv/InstanceNorm/Reshape_1_eightbit_quantize_style_num"
  op: "QuantizeV2"
  input: "style_num"
  input: "transformer/expand/conv3/conv/InstanceNorm/Reshape_1_eightbit_min_style_num"
  input: "transformer/expand/conv3/conv/InstanceNorm/Reshape_1_eightbit_max_style_num"
  attr {
    key: "T"
    value {
      type: DT_QUINT8
    }
  }
  attr {
    key: "mode"
    value {
      s: "MIN_FIRST"
    }
  }
}
node {
  name: "transformer/expand/conv3/conv/InstanceNorm/Reshape_1_eightbit_quantized_reshape"
  op: "QuantizedReshape"
  input: "transformer/expand/conv3/conv/InstanceNorm/Reshape_1_eightbit_quantize_style_num"
  input: "transformer/expand/conv3/conv/InstanceNorm/Reshape_1/shape"
  input: "transformer/expand/conv3/conv/InstanceNorm/Reshape_1_eightbit_quantize_style_num:1"
  input: "transformer/expand/conv3/conv/InstanceNorm/Reshape_1_eightbit_quantize_style_num:2"
  attr {
    key: "T"
    value {
      type: DT_QUINT8
    }
  }
}
node {
  name: "transformer/expand/conv3/conv/InstanceNorm/Reshape_1"
  op: "Dequantize"
  input: "transformer/expand/conv3/conv/InstanceNorm/Reshape_1_eightbit_quantized_reshape"
  input: "transformer/expand/conv3/conv/InstanceNorm/Reshape_1_eightbit_quantized_reshape:1"
  input: "transformer/expand/conv3/conv/InstanceNorm/Reshape_1_eightbit_quantized_reshape:2"
  attr {
    key: "T"
    value {
      type: DT_QUINT8
    }
  }
  attr {
    key: "mode"
    value {
      s: "MIN_FIRST"
    }
  }
}
node {
  name: "transformer/expand/conv3/conv/InstanceNorm/gamma"
  op: "Const"
  attr {
    key: "dtype"
    value {
      type: DT_FLOAT
    }
  }
  attr {
    key: "value"
    value {
      tensor {
        dtype: DT_FLOAT
        tensor_shape {
          dim {
            size: 26
          }
          dim {
            size: 3
          }
        }
        tensor_content: "…"
      }
    }
  }
}
node {
  name: "transformer/expand/conv3/conv/InstanceNorm/mul_1"
  op: "Mul"
  input: "transformer/expand/conv3/conv/InstanceNorm/Reshape_1"
  input: "transformer/expand/conv3/conv/InstanceNorm/gamma"
  attr {
    key: "T"
    value {
      type: DT_FLOAT
    }
  }
}
node {
  name: "transformer/expand/conv3/conv/InstanceNorm/Sum_1/reduction_indices"
  op: "Const"
  attr {
    key: "dtype"
    value {
      type: DT_INT32
    }
  }
  attr {
    key: "value"
    value {
      tensor {
        dtype: DT_INT32
        tensor_shape {
        }
        int_val: 0
      }
    }
  }
}
node {
  name: "transformer/expand/conv3/conv/InstanceNorm/Sum_1"
  op: "Sum"
  input: "transformer/expand/conv3/conv/InstanceNorm/mul_1"
  input: "transformer/expand/conv3/conv/InstanceNorm/Sum_1/reduction_indices"
  attr {
    key: "T"
    value {
      type: DT_FLOAT
    }
  }
  attr {
    key: "Tidx"
    value {
      type: DT_INT32
    }
  }
  attr {
    key: "keep_dims"
    value {
      b: true
    }
  }
}
node {
  name: "transformer/expand/conv3/conv/InstanceNorm/ExpandDims_2/dim"
  op: "Const"
  attr {
    key: "dtype"
    value {
      type: DT_INT32
    }
  }
  attr {
    key: "value"
    value {
      tensor {
        dtype: DT_INT32
        tensor_shape {
        }
        int_val: 1
      }
    }
  }
}
node {
  name: "transformer/expand/conv3/conv/InstanceNorm/ExpandDims_2"
  op: "ExpandDims"
  input: "transformer/expand/conv3/conv/InstanceNorm/Sum_1"
  input: "transformer/expand/conv3/conv/InstanceNorm/ExpandDims_2/dim"
  attr {
    key: "T"
    value {
      type: DT_FLOAT
    }
  }
  attr {
    key: "Tdim"
    value {
      type: DT_INT32
    }
  }
}
node {
  name: "transformer/expand/conv3/conv/InstanceNorm/ExpandDims_3/dim"
  op: "Const"
  attr {
    key: "dtype"
    value {
      type: DT_INT32
    }
  }
  attr {
    key: "value"
    value {
      tensor {
        dtype: DT_INT32
        tensor_shape {
        }
        int_val: 1
      }
    }
  }
}
node {
  name: "transformer/expand/conv3/conv/InstanceNorm/ExpandDims_3"
  op: "ExpandDims"
  input: "transformer/expand/conv3/conv/InstanceNorm/ExpandDims_2"
  input: "transformer/expand/conv3/conv/InstanceNorm/ExpandDims_3/dim"
  attr {
    key: "T"
    value {
      type: DT_FLOAT
    }
  }
  attr {
    key: "Tdim"
    value {
      type: DT_INT32
    }
  }
}
node {
  name: "transformer/expand/conv3/conv/InstanceNorm/batchnorm/mul"
  op: "Mul"
  input: "transformer/expand/conv3/conv/InstanceNorm/batchnorm/Rsqrt"
  input: "transformer/expand/conv3/conv/InstanceNorm/ExpandDims_3"
  attr {
    key: "T"
    value {
      type: DT_FLOAT
    }
  }
}
node {
  name: "transformer/expand/conv3/conv/InstanceNorm/batchnorm/mul_1"
  op: "Mul"
  input: "transformer/expand/conv3/conv/convolution"
  input: "transformer/expand/conv3/conv/InstanceNorm/batchnorm/mul"
  attr {
    key: "T"
    value {
      type: DT_FLOAT
    }
  }
}
node {
  name: "transformer/expand/conv3/conv/InstanceNorm/Reshape/shape"
  op: "Const"
  attr {
    key: "dtype"
    value {
      type: DT_INT32
    }
  }
  attr {
    key: "value"
    value {
      tensor {
        dtype: DT_INT32
        tensor_shape {
          dim {
            size: 2
          }
        }
        tensor_content: "\032\000\000\000\001\000\000\000"
      }
    }
  }
}
node {
  name: "transformer/expand/conv3/conv/InstanceNorm/Reshape_eightbit_reshape_dims"
  op: "Const"
  attr {
    key: "dtype"
    value {
      type: DT_INT32
    }
  }
  attr {
    key: "value"
    value {
      tensor {
        dtype: DT_INT32
        tensor_shape {
          dim {
            size: 1
          }
        }
        int_val: -1
      }
    }
  }
}
node {
  name: "transformer/expand/conv3/conv/InstanceNorm/Reshape_eightbit_reduction_dims"
  op: "Const"
  attr {
    key: "dtype"
    value {
      type: DT_INT32
    }
  }
  attr {
    key: "value"
    value {
      tensor {
        dtype: DT_INT32
        tensor_shape {
          dim {
            size: 1
          }
        }
        int_val: 0
      }
    }
  }
}
node {
  name: "transformer/expand/conv3/conv/InstanceNorm/Reshape_eightbit_reshape_style_num"
  op: "Reshape"
  input: "style_num"
  input: "transformer/expand/conv3/conv/InstanceNorm/Reshape_eightbit_reshape_dims"
  attr {
    key: "T"
    value {
      type: DT_FLOAT
    }
  }
}
node {
  name: "transformer/expand/conv3/conv/InstanceNorm/Reshape_eightbit_min_style_num"
  op: "Min"
  input: "transformer/expand/conv3/conv/InstanceNorm/Reshape_eightbit_reshape_style_num"
  input: "transformer/expand/conv3/conv/InstanceNorm/Reshape_eightbit_reduction_dims"
  attr {
    key: "T"
    value {
      type: DT_FLOAT
    }
  }
  attr {
    key: "keep_dims"
    value {
      b: false
    }
  }
}
node {
  name: "transformer/expand/conv3/conv/InstanceNorm/Reshape_eightbit_max_style_num"
  op: "Max"
  input: "transformer/expand/conv3/conv/InstanceNorm/Reshape_eightbit_reshape_style_num"
  input: "transformer/expand/conv3/conv/InstanceNorm/Reshape_eightbit_reduction_dims"
  attr {
    key: "T"
    value {
      type: DT_FLOAT
    }
  }
  attr {
    key: "keep_dims"
    value {
      b: false
    }
  }
}
node {
  name: "transformer/expand/conv3/conv/InstanceNorm/Reshape_eightbit_quantize_style_num"
  op: "QuantizeV2"
  input: "style_num"
  input: "transformer/expand/conv3/conv/InstanceNorm/Reshape_eightbit_min_style_num"
  input: "transformer/expand/conv3/conv/InstanceNorm/Reshape_eightbit_max_style_num"
  attr {
    key: "T"
    value {
      type: DT_QUINT8
    }
  }
  attr {
    key: "mode"
    value {
      s: "MIN_FIRST"
    }
  }
}
node {
  name: "transformer/expand/conv3/conv/InstanceNorm/Reshape_eightbit_quantized_reshape"
  op: "QuantizedReshape"
  input: "transformer/expand/conv3/conv/InstanceNorm/Reshape_eightbit_quantize_style_num"
  input: "transformer/expand/conv3/conv/InstanceNorm/Reshape/shape"
  input: "transformer/expand/conv3/conv/InstanceNorm/Reshape_eightbit_quantize_style_num:1"
  input: "transformer/expand/conv3/conv/InstanceNorm/Reshape_eightbit_quantize_style_num:2"
  attr {
    key: "T"
    value {
      type: DT_QUINT8
    }
  }
}
node {
  name: "transformer/expand/conv3/conv/InstanceNorm/Reshape"
  op: "Dequantize"
  input: "transformer/expand/conv3/conv/InstanceNorm/Reshape_eightbit_quantized_reshape"
  input: "transformer/expand/conv3/conv/InstanceNorm/Reshape_eightbit_quantized_reshape:1"
  input: "transformer/expand/conv3/conv/InstanceNorm/Reshape_eightbit_quantized_reshape:2"
  attr {
    key: "T"
    value {
      type: DT_QUINT8
    }
  }
  attr {
    key: "mode"
    value {
      s: "MIN_FIRST"
    }
  }
}
node {
  name: "transformer/expand/conv3/conv/InstanceNorm/beta"
  op: "Const"
  attr {
    key: "dtype"
    value {
      type: DT_FLOAT
    }
  }
  attr {
    key: "value"
    value {
      tensor {
        dtype: DT_FLOAT
        tensor_shape {
          dim {
            size: 26
          }
          dim {
            size: 3
          }
        }
        tensor_content: "…"
      }
    }
  }
}
node {
  name: "transformer/expand/conv3/conv/InstanceNorm/mul"
  op: "Mul"
  input: "transformer/expand/conv3/conv/InstanceNorm/Reshape"
  input: "transformer/expand/conv3/conv/InstanceNorm/beta"
  attr {
    key: "T"
    value {
      type: DT_FLOAT
    }
  }
}
node {
  name: "transformer/expand/conv3/conv/InstanceNorm/Sum/reduction_indices"
  op: "Const"
  attr {
    key: "dtype"
    value {
      type: DT_INT32
    }
  }
  attr {
    key: "value"
    value {
      tensor {
        dtype: DT_INT32
        tensor_shape {
        }
        int_val: 0
      }
    }
  }
}
node {
  name: "transformer/expand/conv3/conv/InstanceNorm/Sum"
  op: "Sum"
  input: "transformer/expand/conv3/conv/InstanceNorm/mul"
  input: "transformer/expand/conv3/conv/InstanceNorm/Sum/reduction_indices"
  attr {
    key: "T"
    value {
      type: DT_FLOAT
    }
  }
  attr {
    key: "Tidx"
    value {
      type: DT_INT32
    }
  }
  attr {
    key: "keep_dims"
    value {
      b: true
    }
  }
}
node {
  name: "transformer/expand/conv3/conv/InstanceNorm/ExpandDims/dim"
  op: "Const"
  attr {
    key: "dtype"
    value {
      type: DT_INT32
    }
  }
  attr {
    key: "value"
    value {
      tensor {
        dtype: DT_INT32
        tensor_shape {
        }
        int_val: 1
      }
    }
  }
}
node {
  name: "transformer/expand/conv3/conv/InstanceNorm/ExpandDims"
  op: "ExpandDims"
  input: "transformer/expand/conv3/conv/InstanceNorm/Sum"
  input: "transformer/expand/conv3/conv/InstanceNorm/ExpandDims/dim"
  attr {
    key: "T"
    value {
      type: DT_FLOAT
    }
  }
  attr {
    key: "Tdim"
    value {
      type: DT_INT32
    }
  }
}
node {
  name: "transformer/expand/conv3/conv/InstanceNorm/ExpandDims_1/dim"
  op: "Const"
  attr {
    key: "dtype"
    value {
      type: DT_INT32
    }
  }
  attr {
    key: "value"
    value {
      tensor {
        dtype: DT_INT32
        tensor_shape {
        }
        int_val: 1
      }
    }
  }
}
node {
  name: "transformer/expand/conv3/conv/InstanceNorm/ExpandDims_1"
  op: "ExpandDims"
  input: "transformer/expand/conv3/conv/InstanceNorm/ExpandDims"
  input: "transformer/expand/conv3/conv/InstanceNorm/ExpandDims_1/dim"
  attr {
    key: "T"
    value {
      type: DT_FLOAT
    }
  }
  attr {
    key: "Tdim"
    value {
      type: DT_INT32
    }
  }
}
node {
  name: "transformer/expand/conv3/conv/InstanceNorm/batchnorm/mul_2"
  op: "Mul"
  input: "transformer/expand/conv3/conv/InstanceNorm/moments/normalize/mean"
  input: "transformer/expand/conv3/conv/InstanceNorm/batchnorm/mul"
  attr {
    key: "T"
    value {
      type: DT_FLOAT
    }
  }
}
node {
  name: "transformer/expand/conv3/conv/InstanceNorm/batchnorm/sub"
  op: "Sub"
  input: "transformer/expand/conv3/conv/InstanceNorm/ExpandDims_1"
  input: "transformer/expand/conv3/conv/InstanceNorm/batchnorm/mul_2"
  attr {
    key: "T"
    value {
      type: DT_FLOAT
    }
  }
}
node {
  name: "transformer/expand/conv3/conv/InstanceNorm/batchnorm/add_1"
  op: "Add"
  input: "transformer/expand/conv3/conv/InstanceNorm/batchnorm/mul_1"
  input: "transformer/expand/conv3/conv/InstanceNorm/batchnorm/sub"
  attr {
    key: "T"
    value {
      type: DT_FLOAT
    }
  }
}
node {
  name: "transformer/expand/conv3/conv/Sigmoid"
  op: "Sigmoid"
  input: "transformer/expand/conv3/conv/InstanceNorm/batchnorm/add_1"
  attr {
    key: "T"
    value {
      type: DT_FLOAT
    }
  }
}
node {
  name: "mul/y"
  op: "Const"
  attr {
    key: "dtype"
    value {
      type: DT_FLOAT
    }
  }
  attr {
    key: "value"
    value {
      tensor {
        dtype: DT_FLOAT
        tensor_shape {
        }
        float_val: 255.0
      }
    }
  }
}
node {
  name: "mul"
  op: "Mul"
  input: "transformer/expand/conv3/conv/Sigmoid"
  input: "mul/y"
  attr {
    key: "T"
    value {
      type: DT_FLOAT
    }
  }
}
node {
  name: "Squeeze"
  op: "Squeeze"
  input: "mul"
  attr {
    key: "T"
    value {
      type: DT_FLOAT
    }
  }
  attr {
    key: "squeeze_dims"
    value {
      list {
      }
    }
  }
}
node {
  name: "strided_slice/stack"
  op: "Const"
  attr {
    key: "dtype"
    value {
      type: DT_INT32
    }
  }
  attr {
    key: "value"
    value {
      tensor {
        dtype: DT_INT32
        tensor_shape {
          dim {
            size: 3
          }
        }
        tensor_content: "\000\000\000\000\000\000\000\000\000\000\000\000"
      }
    }
  }
}
node {
  name: "strided_slice/stack_1"
  op: "Const"
  attr {
    key: "dtype"
    value {
      type: DT_INT32
    }
  }
  attr {
    key: "value"
    value {
      tensor {
        dtype: DT_INT32
        tensor_shape {
          dim {
            size: 3
          }
        }
        tensor_content: "\000\000\000\000\000\000\000\000\000\000\000\000"
      }
    }
  }
}
node {
  name: "strided_slice/stack_2"
  op: "Const"
  attr {
    key: "dtype"
    value {
      type: DT_INT32
    }
  }
  attr {
    key: "value"
    value {
      tensor {
        dtype: DT_INT32
        tensor_shape {
          dim {
            size: 3
          }
        }
        tensor_content: "\001\000\000\000\377\377\377\377\001\000\000\000"
      }
    }
  }
}
node {
  name: "strided_slice"
  op: "StridedSlice"
  input: "Squeeze"
  input: "strided_slice/stack"
  input: "strided_slice/stack_1"
  input: "strided_slice/stack_2"
  attr {
    key: "Index"
    value {
      type: DT_INT32
    }
  }
  attr {
    key: "T"
    value {
      type: DT_FLOAT
    }
  }
  attr {
    key: "begin_mask"
    value {
      i: 7
    }
  }
  attr {
    key: "ellipsis_mask"
    value {
      i: 0
    }
  }
  attr {
    key: "end_mask"
    value {
      i: 7
    }
  }
  attr {
    key: "new_axis_mask"
    value {
      i: 0
    }
  }
  attr {
    key: "shrink_axis_mask"
    value {
      i: 0
    }
  }
}
node {
  name: "output"
  op: "Cast"
  input: "strided_slice"
  attr {
    key: "DstT"
    value {
      type: DT_UINT8
    }
  }
  attr {
    key: "SrcT"
    value {
      type: DT_FLOAT
    }
  }
}
